runs/lstm/best.pt (torch, 938517 bytes, 10 tensors)

lstm.weight_ih_l0 f4 [512, 68]
00000000: f932 933b 5853 a6bd 2b19 883c 899c 003d
00000010: 443a 07bc 1c0e 06bd 3013 6d3d 96c0 813d
00000020: 6af2 1d3c 8cc3 293c 1efd 36bc 0adb b3bc
00000030: 8df5 dfbc 6ee4 f33c 89f1 01bd 6877 1c3c
00000040: f1f9 a1bd 6f94 463b 2c08 4d3d ba54 b93d
00000050: 8b49 67bc 6edc 77bd 75a1 44bd a6ff c53d
00000060: dc40 853d 9c16 5d3d d92d f63b 0ca9 923d
00000070: e956 853d 187e 253d 4216 8d3c baf5 35bd
00000080: 5e6b 09bd 3b4a 85bd e708 903d 2833 b03d
00000090: 2e0e 17bd 3289 f3bc 923e 6d3b b46e 12bc
000000a0: c494 613c bb42 ae3c 99dd a83d 6edb bcbc
000000b0: 942c e43d 3700 8e3d ee9b f03c 4199 67bc
000000c0: e689 27bd ce86 6abd 5d7a 803d 25a3 6c3c
000000d0: 986b 813d dddb 0dbb 3cb9 24ba a4e2 44bd
000000e0: 877b 21bd 6843 33bd 2e85 ce3c 7a18 cabd
000000f0: 8592 9e3d 6aca 873d 522e 69bd 291f 363d
00000100: 1026 163d d507 73bd 7b2b e83b 7428 153d
00000110: 07f9 9bbc 2591 20bc dfb6 a23c 4429 a1bd
00000120: 832f 37bd 1a50 673c 0c71 813b 8cdb afbd
00000130: bf86 72bd 99dd 63bd 2da3 30bd d5a0 903d
00000140: f8f3 b3bd 1d85 7d3d d44a 323d e357 4abd
00000150: 8b40 543c 057f 8dbd 10af 9cbc 39c9 9dbd
00000160: eadd 543c 11aa 97bd b331 8dbd db47 813b
00000170: 3fd5 8cbb bfb9 2dbd e4f1 a63d a611 333d
00000180: d7ba 2cbd 780c e6bb aa46 fbbb cd02 c03d
00000190: d0a9 e9bc b9c0 a43d 2381 b2bd 3651 603d
000001a0: 510c a3bd 9f11 b33d ff53 b73c 3fdb 89bd
000001b0: 08e6 55bc 42de 0b3d eb1c 863c 905f 7abd
000001c0: b616 e3bc 8d72 94bc fd1d 2e3d 25d1 f8bb
000001d0: d88a 50bd 8215 c93d fbdc 343d ee1f 463b
000001e0: 74fd 2fbd d46b d53c 15dd 02bc 2251 7fba
000001f0: 20f7 253c c4a6 3c3d 6636 233d b35b 6e3c
00000200: ce48 e83c 3ef1 683d 8a95 3dbd fa81 ac3d
00000210: bb56 443d d4cc 71bc 2888 6fbd 8078 2e3d
00000220: 3f40 803d 9fdb 8fbd 786b c6bd d862 8fbc
00000230: 5047 063d 1de7 ffbc ddef d1bd cda7 aebd
00000240: 1213 913b 9f9b c83c f530 b7bc 34be 2c3d
00000250: 941e 1abd 1b30 49bd 7123 b6bd 4243 b5bc
00000260: 0150 b33c b9e2 babd 9569 c2bd 6795 743c
00000270: 1c3f 973d fd21 803d ed95 cb3c 9b8b 6abd
00000280: 2527 f53c 9640 9ebd f696 70bb 98f1 06bd
00000290: a19b 783d ceb0 cdbd f694 c13d ffda 3abd
000002a0: 6f64 b83d fd00 a6bd bb5c 20bd 744e 8c3d
000002b0: dd94 d03c 5fb4 573d 1aa6 a8bb 9ae4 3e3d
000002c0: 4b4f 89bd 2f66 7dbd 9277 cbbd d5ad b23d
000002d0: a3f6 bbbd cfc4 48bc e1ee 1dbd b746 9a3b
000002e0: 6327 e5bc f00b 8abd c6fc 80bd f9b0 cb3d
000002f0: 02cc 1b3d af8a 64bd 9b97 993c dfd6 a6bb
00000300: c15e 3c3d 0d5d 56bd aea6 2d3d 1348 e43d
00000310: a731 cd3d 484e a23d c942 2dbd 7b10 26bd
00000320: 422b 333c 9f90 423d 8e77 42bd 66a1 54bd
00000330: a0c9 713d aa92 bd3c 6f6f e7bc 99e5 693d
00000340: c124 bd3d 1289 3a3c c32b 40bc bd65 6abc
00000350: ed60 ecbc 5bcd 6a3d 4374 0f3d cb69 69bd
00000360: 6606 223c 54b8 b1bb 4eda b93d adad f1bc
00000370: fb22 d9bc f462 72bc 2435 283c 129f 9ebd
00000380: 0259 84bd 833f 85bd 77d2 8dbd b25e 81bd
00000390: a200 d9bc 00a5 963d 04eb bebb 17f1 983c
000003a0: b443 11bd 709f 913d c56e 873c 6e8c babc
000003b0: 392a c4bc 99a7 30bd 3bb6 c23c 3dc2 98bd
000003c0: 036c 973c 5219 2fbc 44cf 8d3d ba26 98bd
000003d0: 2dd6 413d bfb1 393d daeb 553d ca44 8bbc
000003e0: 96bc 283d 2019 04bd 8638 88bd 8196 a2bd
000003f0: f5dc ce3c ec47 acbc 9122 4a3d 7c3a b23d
0.0044921604 -0.08121365 0.016613564 0.031399284 -0.008253638 -0.0327283 0.057879627 0.06335561
0.009640316 0.010361563 -0.011168746 -0.021955032 -0.027338767 0.02977201 -0.031724487 0.009549953
-0.07909001 0.0030300876 0.05005662 0.090493634 -0.014116655 -0.060512953 -0.04800554 0.09667902
0.065065116 0.05397664 0.0075127897 0.071611494 0.065107174 0.040403455 0.017222527 -0.044423796
-0.03354966 -0.06508299 0.07032948 0.08603507 -0.036878757 -0.029728506 0.0036200625 -0.0089375265
0.013768379 0.021272054 0.082453914 -0.023053851 0.11141315 0.06933635 0.029371228 -0.01413566
-0.040902995 -0.057257466 0.06273339 0.014443194 0.0631935 -0.0021645941 -0.00062837056 -0.048067704
-0.039424445 -0.043765455 0.02520999 -0.0986795 0.0774279 0.06630404 -0.05692894 0.04446331
0.036657393 -0.05933364 0.0070852614 0.036415532 -0.019039644 -0.00980023 0.01986259 -0.07869199
-0.044723045 0.014118219 0.003950244 -0.08586797 -0.059210535 -0.055631254 -0.043124367 0.07061926
-0.08786768 0.061894525 0.043528393 -0.04940022 0.012954841 -0.06908993 -0.019126445 -0.07704396
0.012992362 -0.074054845 -0.06894245 0.0039453334 -0.004297882 -0.04241347 0.08151606 0.043718003
-0.04217037 -0.0070205294 -0.007668336 0.09375534 -0.028523356 0.080445714 -0.08716037 0.05476495
-0.079613335 0.08743595 0.02237892 -0.06731271 -0.013055332 0.03414751 0.016371211 -0.06112629
-0.02772079 -0.018121028 0.042509068 -0.0075932913 -0.05091366 0.098185554 0.044156056 0.0030231434
-0.04296632 0.026052393 -0.00798728 -0.0009739568 0.01012972 0.046057478 0.0398468 0.01454823
0.028355028 0.05687069 -0.04628519 0.084232286 0.047934275 -0.0147583075 -0.058479458 0.042595387
0.06262254 -0.07024311 -0.09688467 -0.017503187 0.032782853 -0.031238133 -0.102508284 -0.08528099
0.004427322 0.024488268 -0.022362212 0.04217358 -0.037626818 -0.049118143 -0.08893479 -0.022126798
0.021888735 -0.09125275 -0.094927944 0.014928198 0.07385084 0.06256483 0.024851764 -0.057262044
0.029925892 -0.077271625 -0.0036711073 -0.032945246 0.060695294 -0.100434884 0.0945224 -0.045619007
0.09003531 -0.08105657 -0.039150935 0.06850901 0.025461609 0.05266225 -0.005146754 0.04660473
-0.06704577 -0.061865028 -0.099349156 0.08724562 -0.091779016 -0.012253954 -0.03855789 0.004708137
-0.027972883 -0.06740558 -0.06298213 0.09945864 0.038036354 -0.05579632 0.018749049 -0.0050915326
0.045988802 -0.052334834 0.042395286 0.111465596 0.10019236 0.07925087 -0.04230002 -0.04054306
0.010935606 0.047501203 -0.047477297 -0.051911734 0.059030175 0.023141224 -0.028251378 0.057103727
0.09235526 0.011385219 -0.011729184 -0.014306483 -0.028854812 0.05732475 0.035022985 -0.056985658
0.009889221 -0.005423585 0.090748414 -0.02950176 -0.026505938 -0.0147941 0.010266576 -0.07745184
-0.064622894 -0.065062545 -0.069249086 -0.0631689 -0.02648956 0.0735569 -0.005826356 0.018669648
-0.035464957 0.071104884 0.016532311 -0.02277204 -0.023945915 -0.043128584 0.023768535 -0.07458923
0.018484121 -0.010687189 0.069242984 -0.074292615 0.047323395 0.045335528 0.05222688 -0.017000575
0.041195475 -0.032250524 -0.06651406 -0.079388626 0.025251845 -0.021030389 0.04934937 0.08702561

lstm.weight_hh_l0 f4 [512, 128]
00000000: af92 15bc 17f5 04bd 21da 433d 3788 88bd
00000010: 6c88 b13d 2696 413d 4ee9 e23c cd31 493c
00000020: 4c52 6bbd b01d 3c3c f91d de3c 5a42 5bba
00000030: e506 da3c c16d 083d fbfa d13c ce48 293d
00000040: b2f0 313d dbde 09bd 17a2 e03c ee65 0f3d
00000050: 18e4 673d c67c 12bd 2a83 903c 8c4d 033d
00000060: 4112 4e3c f611 d3bc 6580 7bbd 8474 30bd
00000070: 94c5 993d 840e d83c d3a1 8cbd 0773 033d
00000080: 8e0e cfbc d992 60bd 1292 b03d 3a83 51bd
00000090: c8ff 04bc 84e1 56bc b8a0 043c d656 6c3d
000000a0: 8f1e ea3c f879 a9bd f99c 873d 2cbc 13bd
000000b0: 4315 9f3d 23cc 873d f6a5 863d 06f7 b3bd
000000c0: f3f7 033d e23d a9ba 2cac 6b3d 0f85 10bd
000000d0: a797 553d 2b20 78bd 5ac6 afbc bb65 923c
000000e0: 1e6a f3ba c9d1 d63c b0ca a2ba 18c2 9dbc
000000f0: 94df b7bd 1fbb ed3c 0b02 593d 2425 9d3d
00000100: f38b c0bb e263 00bd 9825 58bc 8d00 ce3d
00000110: 684f 1c3d e1fd 623d 3fb4 873d 00fc 87bc
00000120: 71b2 d0bc 96bb 57bd 825d 13bd 9bc6 32bd
00000130: f7dd debc 8360 b43d de7c a23d aa6b 613d
00000140: 7947 11bd 15f6 95bd 7277 8f3d d2e5 8b3d
00000150: 82f8 8b3d a172 473d 67e7 103d e887 2cbd
00000160: 3f69 9cbb d4ea e8bc 2ea7 8fbd c66a 83bc
00000170: c258 613d 82a2 513c d834 acbc ebf2 14bc
00000180: 59a2 09bd 323d 773d 5327 f43b fc87 efbb
00000190: a78f 1cbd ab69 6c3d f31f 0c3d 0953 99bd
000001a0: 0e56 90bd 05f3 9e3d 4ea3 293d 171b 40bd
000001b0: 4ec7 03bc 4b59 5e3d 03cc 473d 925f 733d
000001c0: b833 fc3b 3676 3b3d 7c87 bbbd 8ceb 43bd
000001d0: f89c 663d 8999 563c 67c5 613d 8c1c a9bd
000001e0: 0e85 1a3d fa2f fabc b278 cabd 5999 b93d
000001f0: 0e3e 1c3d aa00 a43d 1e45 0a3d 0298 743a
00000200: 6bd2 da3c 25b2 603d 8f9d 2e3d ee9a 91bd
00000210: 72ff 52bd 05a9 bdbc 9026 debc 408f 9f3d
00000220: 4314 81bd ed0a aeba df52 c73d f0c4 133d
00000230: bce7 82bd 3b5e 7a3c e301 a3bd 3017 643d
00000240: 81de c03d 4c6e 313d 0428 19bc d9af b53d
00000250: 547b 253d ec9d 21bd 4907 ce3c 30ea 3b3d
00000260: cc3c 5bbd 44d5 0abc a143 be3d 8737 9dbd
00000270: 78ff aebd 0fb5 afbc 7520 57bd 93bd 913d
00000280: 48bc f23c 6c9e 85bd 7e3a 443c 4f11 953d
00000290: 493e a43d e3b0 83bd ed48 46bd 6c37 873d
000002a0: add0 2e3d 615f 023c 8382 933c fcbf 143d
000002b0: c71e 9cbd 52b7 1e3d 6d5e 953d 913a acbd
000002c0: 5544 113d 8781 d2bc d358 e03a 0f44 973d
000002d0: 5f32 853d eca2 0bbd abe5 5bbc 95c9 d33c
000002e0: 1407 803d 57b2 79bd 82a7 363d c8dc 39bd
000002f0: d00e 13bd a88e a83d 5aab c33c 299e 9abb
00000300: 0d80 16bd d5a3 16bd 8469 a8bd 0d24 363d
00000310: 0b2b 95bd 3c35 9fbc 8d39 5c3d 7f79 a8bb
00000320: 8fe5 363d f2b3 663d ae40 903d b940 123d
00000330: 51e1 6f3d db5a 8c3d 4b15 3cbc 39e6 80bd
00000340: c4bb 00bc 111d 73bd 1f73 99bd ba99 76bd
00000350: d0eb bebc da13 5fbd 64a5 953c 5620 173d
00000360: 43b3 afbd f750 9dbd afb3 94bd 2b90 9b3c
00000370: 52f5 f3bc 675e a23c 2b98 cc3b 8d47 44bd
00000380: 7598 89bd 5741 1339 e70e 0f3d 8651 a33c
00000390: 26c2 9fbc 3813 1cbd 8e79 a1bd b89a 0f3d
000003a0: f2fb 0ebd e7b7 503d ab15 90bd 925c 613d
000003b0: c35b 8abd 5cc1 ef3b 5eec 413b 0757 be3c
000003c0: ac9b 963d 3ab2 2bbd 545e 16bd cee7 a83d
000003d0: 7d2a 7bbd 4221 403d a3d9 b6bb 3a29 d13d
000003e0: 540e 6fbc b4a7 00bd dc18 663d fadf 8a3d
000003f0: cb17 6a3d 6aa4 373d 56cf cc3d 7871 2d3d
-0.00912921 -0.0324603 0.047815446 -0.06666606 0.086685985 0.047262333 0.027699139 0.01227994
-0.05745153 0.011481687 0.027113901 -0.0008364074 0.026614616 0.033307794 0.025632372 0.041329198
0.043442436 -0.033659797 0.02742104 0.035009317 0.05661401 -0.035763524 0.017640669 0.032056376
0.012577594 -0.0257654 -0.061401743 -0.043079868 0.07508388 0.02637411 -0.06866803 0.03209212
-0.025275495 -0.054827545 0.08621611 -0.051150538 -0.008117624 -0.013115291 0.008094959 0.0577
0.028579025 -0.08275217 0.06621737 -0.036068127 0.07767727 0.06630733 0.06574623 -0.0878735
0.032218885 -0.0012912119 0.057537243 -0.035283145 0.05214658 -0.060577553 -0.021456886 0.017870774
-0.0018571054 0.02622308 -0.0012420025 -0.01925759 -0.08978191 0.02901989 0.052980464 0.076731
-0.0058760582 -0.031345256 -0.013192557 0.10058699 0.038161665 0.0554179 0.06626176 -0.016599655
-0.025475712 -0.05266913 -0.035977848 -0.043646436 -0.02720545 0.08807471 0.07933973 0.055034317
-0.035468552 -0.07322327 0.07005204 0.06830944 0.068345085 0.048693303 0.035376932 -0.042121798
-0.0047732885 -0.028432287 -0.07014309 -0.016042124 0.055016287 0.012795093 -0.021021292 -0.009091119
-0.033602092 0.060361095 0.007450977 -0.007309912 -0.038222935 0.05771796 0.034210157 -0.07486541
-0.07047664 0.07761196 0.041415505 -0.046900835 -0.008043123 0.054284375 0.048778545 0.059417315
0.007696595 0.04576703 -0.09156701 -0.047832057 0.05630204 0.013098129 0.0551199 -0.08257398
0.037724547 -0.030540455 -0.09886302 0.09062452 0.038145117 0.08007939 0.03375732 0.0009330512
0.026711663 0.054857392 0.04263073 -0.071096286 -0.051513143 -0.023151884 -0.027117997 0.07790995
-0.06302693 -0.0013278403 0.09732603 0.036076486 -0.06391856 0.015281255 -0.07959344 0.055686176
0.09417439 0.043318078 -0.009347919 0.08871431 0.040400818 -0.039457247 0.025149958 0.045877635
-0.053524777 -0.008473698 0.09290243 -0.076766066 -0.085448205 -0.02144864 -0.052521188 0.071162365
0.029630795 -0.06524357 0.011976836 0.07278692 0.080196925 -0.06430223 -0.04840939 0.06602368
0.042679477 0.00795731 0.018006569 0.036315903 -0.07623058 0.038749047 0.07293401 -0.08409608
0.035465557 -0.02569653 0.0017116315 0.07386028 0.06503748 -0.03409092 -0.013421456 0.025852958
0.0625135 -0.060961094 0.04459334 -0.04537657 -0.0359028 0.082303345 0.023885418 -0.004718561
-0.036743212 -0.036777336 -0.082232505 0.044467974 -0.072836004 -0.019434564 0.053765822 -0.0051414366
0.044652518 0.056323953 0.07043587 0.035706256 0.058564488 0.06853267 -0.011479686 -0.062939115
-0.007857267 -0.05935389 -0.07492661 -0.0602052 -0.023305804 -0.05446229 0.018267341 0.036896072
-0.08579113 -0.076814584 -0.072608344 0.018989643 -0.029780064 0.019820405 0.006243726 -0.0479198
-0.06718532 0.00014043353 0.03492632 0.019936334 -0.019501757 -0.038104266 -0.07884513 0.03505966
-0.034908243 0.050956633 -0.07035383 0.055019923 -0.067557834 0.0073167514 0.0029590349 0.023234857
0.07353911 -0.041918017 -0.036711052 0.08247338 -0.061319817 0.046906717 -0.0055801435 0.102129415
-0.014590818 -0.031409934 0.05617605 0.067810014 0.057151597 0.04483453 0.10000484 0.04234454

lstm.bias_ih_l0 f4 [512]
00000000: 1b0a ab3d 6da0 903c 686f 993b 69e1 353c
00000010: 1eb9 0a3d ced2 90bd a58c 06bd 83b3 223d
00000020: 0341 4fbb 89c2 1abd 2d6d e33c bdcc 763a
00000030: 8e0c 8e3c cd4d 0d3c c73f 033d e7f7 9fbd
00000040: 56cc 2d3d f19e 1f3d 8913 6ebd 3b23 b5bc
00000050: d7d6 3c3d 9b7c c83d c019 f23c c3f2 8e3c
00000060: 4e41 85bd 87ed acba 0cb6 9dbd 05f5 96bc
00000070: 81d8 d33c 4f02 adbd 27d8 f6bc 175c 64bd
00000080: 5134 2bbd 45dc c73c 85cd 933d 784a da3c
00000090: cae1 fc3c b36e febb 14d3 5abd 7995 45bc
000000a0: 46ac 26bd 3370 3abd 7bbd 5b3d 4345 b23d
000000b0: c7f1 8bbd 140d 9bbd 8268 73bd a15e a0bd
000000c0: b7a8 a9bc 6530 923d 3b02 0d3d 7e9b 893d
000000d0: 2e13 373d d80e 88bd 1561 5b3d 9093 afbc
000000e0: 9608 f53c 23e0 ad3d 16cb 37bd a320 23bd
000000f0: 4054 98bc a779 54bb 98d9 043d 57f2 443d
00000100: 1078 9e3d 4baf 3a3c 0b54 413d 19dc 913c
00000110: 47d5 8bbd e1a3 cb3c a657 363d 8461 0e3d
00000120: dad4 51bd 2f83 9d3c 9177 a63d ae20 983d
00000130: 2b15 5a3d 02e2 8d3d 46cd 80bc 5d5a 40bd
00000140: f7dc 603d 62b3 97bc 5ee6 06bd 446e 15bc
00000150: c5ff 1dbd 8e99 25bd 6dc9 063d 73f0 10bd
00000160: 9b57 87bb ba4a d7bc 2324 8d3d 7e54 be3c
00000170: 3bd5 9dbd 1430 0cbc a371 7dbd 2eb4 223d
00000180: a9e8 16bd 937b 8cbc 6be9 c1bd d013 a73c
00000190: 65e8 933d a469 633c 3ae7 ac3d ffa6 40bd
000001a0: 343f d53c 6041 7b3d e943 61bc b9d5 b73c
000001b0: bbfb b13d 9142 d23c c5b6 7cbd 93fa 81bd
000001c0: dfb3 0abd 1b14 9cbc 53c7 a53d 286c 193d
000001d0: 7134 a53d 181e 373d 9e1b b73c 0c45 363d
000001e0: 9e5f 27bc 1fd7 a13d 8138 b43d cd82 b63c
000001f0: 0a15 0f3c c355 feba f5c8 ab3d 99b3 393d
00000200: 6590 22bd e732 b2bc a38f 353c 7755 403d
00000210: 88b9 0e3b 28e1 a8bd 1660 243d 7402 003d
00000220: 1caa ca3d fab8 a9bb 5b86 153d b791 963d
00000230: d431 7abd 4d31 87bd 72b2 623d 590f 863d
00000240: bebb 95bd 1039 a73d e988 8cbd b5c0 4e3d
00000250: 1f51 91bd e478 a63d 653f de3c 8256 61bc
00000260: 84a3 00bd 0abc 9e3c b23e aabd f49b 7b3d
00000270: 4982 eb3c 3551 243d fb0d 74bd 224f c13c
00000280: cce7 483d 32d5 51bd eb00 373d 4414 933d
00000290: 017c 07bd 04ea a1bc 1b58 113d 685c 073d
000002a0: a976 f7bc f6e0 e13d b6f6 23bd c522 793b
000002b0: e269 aebc 6b06 b83d 727b b6ba 3b72 363d
000002c0: 02bf 91bd f64e 733d 9463 d9bc 660d 563c
000002d0: 812b e43c 0828 0fbd b25f 8bbd 7737 273d
000002e0: b6cc e53c 9152 70bd ff44 80bd 1d5e 6e3d
000002f0: 4836 8abd 96f0 573d 8096 adbc 47bf 913d
00000300: 31ee 973d d28b 923d 7759 9c3d bf1f 82bb
00000310: 2449 6e3d d868 aabd 8529 1cbd c443 a0bd
00000320: 7aa9 35bd b940 da3c 3423 b23d 6b12 46bc
00000330: 3bd0 68bd 8c64 fcbc d477 03bc cbb1 06bd
00000340: 8aa7 a23b 4ee3 59bd ef26 213d 17fb cc3c
00000350: 0953 e3bc a490 d03d 9892 cb3d bb35 2b3c
00000360: 1684 a93d 41ef 8c3d 83e0 dd3c b9d9 3a3c
00000370: b020 8e3c e664 4ebd 31de 943c 838e a53d
00000380: 48e6 f83c fe6a a0bd 29ee b33c 72c6 913d
00000390: d0ee e03c 8e3b fcbc b0e2 9abd 6ba6 f7bc
000003a0: c3bb 85bd a568 ba3c a69d 8fbd a9e4 8cbc
000003b0: f725 4dbd 28b0 04bd f012 cc3d c08a b53d
000003c0: cff1 14bd 1c14 9abd 022b 023d ece3 52bd
000003d0: b804 103d 0e4c 7cbd e63d f93c 518a 023d
000003e0: e9cc 16bc a83e a1bb 5e03 823d bb8e c1bc
000003f0: de8e 843d fc82 373d e4b3 593c 98a1 723d
0.08351537 0.017654622 0.00468247 0.011101105 0.033867948 -0.07071458 -0.032848973 0.039721977
-0.0031624443 -0.03778318 0.02776202 0.00094146637 0.01733997 0.008624506 0.032043245 -0.078109555
0.042431198 0.038969938 -0.0581241 -0.022111526 0.046103325 0.097893916 0.029553294 0.017449742
-0.065065965 -0.0013193347 -0.07700738 -0.018427381 0.025860073 -0.08447706 -0.030132366 -0.055751886
-0.04179794 0.024397025 0.07216934 0.026646838 0.030869383 -0.007764661 -0.053423956 -0.012059563
-0.040691637 -0.045517158 0.0536475 0.08704617 -0.06833225 -0.07570854 -0.05942584 -0.07830549
-0.020710332 0.07138137 0.034425955 0.06719111 0.044696026 -0.06643456 0.05355938 -0.021432668
0.02991132 0.08490016 -0.044871412 -0.039826047 -0.018594861 -0.0032421143 0.032434076 0.048082676
0.07737744 0.011394332 0.04719929 0.017805146 -0.06827789 0.024858417 0.04451718 0.034760967
-0.05122838 0.019227592 0.08128274 0.07428108 0.053242844 0.06927873 -0.015722882 -0.046961177
0.05489823 -0.018518154 -0.03293454 -0.009120528 -0.038574 -0.040429644 0.03290694 -0.03538556
-0.0041303164 -0.02628075 0.06891658 0.023233648 -0.07706686 -0.008556385 -0.06187595 0.039722614
-0.036842976 -0.017148769 -0.09468349 0.02039519 0.0722206 0.013880167 0.084425405 -0.04703426
0.026031114 0.061341643 -0.013749101 0.022440778 0.08690592 0.025666507 -0.06169774 -0.06346621
-0.033862945 -0.019052556 0.08094659 0.03745666 0.08066643 0.044706434 0.022352036 0.044499442
-0.010215668 0.07902359 0.0879984 0.022279168 0.008733043 -0.0019404221 0.08387939 0.045337293
-0.039688487 -0.021752788 0.011081609 0.046956506 0.0021778066 -0.0824607 0.040130697 0.03125234
0.09895727 -0.0051795216 0.036505084 0.07352012 -0.061082676 -0.066012 0.05534596 0.06545896
-0.073111996 0.08165181 -0.06862051 0.05047675 -0.07095551 0.08128527 0.027129838 -0.013753535
-0.03140594 0.019376773 -0.083127394 0.061428025 0.028748648 0.040116508 -0.059583645 0.023597304
0.049049184 -0.05122871 0.04467861 0.071816 -0.033077244 -0.019764908 0.035484415 0.03304711
-0.030207949 0.11029236 -0.040030204 0.003801511 -0.021290723 0.08985599 -0.0013922288 0.044542532
-0.0711651 0.059401475 -0.02653674 0.013064718 0.027852776 -0.034950286 -0.06805362 0.04082438
0.028051715 -0.05867249 -0.0626316 0.058195222 -0.067486346 0.052719675 -0.021189928 0.071165614
0.07418478 0.07155575 0.076342516 -0.0039710696 0.05817522 -0.083207786 -0.038125534 -0.07825425
-0.04435108 0.02664219 0.08698121 -0.012089352 -0.05683921 -0.030809663 -0.008024175 -0.0328844
0.00496382 -0.05319529 0.03934377 0.025022073 -0.027749555 0.10183838 0.0994007 0.010449822
0.082771465 0.068815716 0.027084595 0.011404448 0.017349571 -0.050389193 0.018172355 0.080838226
0.030383244 -0.07832907 0.02196415 0.071179286 0.027457625 -0.030790117 -0.075627685 -0.030230721
-0.06529953 0.022754977 -0.07012491 -0.017198877 -0.050085034 -0.03239456 0.099645495 0.08864355
-0.03636342 -0.07523367 0.031779297 -0.051486894 0.03516075 -0.06159597 0.030425023 0.03187019
-0.009204128 -0.0049207993 0.063482985 -0.02362763 0.06472562 0.04480265 0.013287518 0.05923614

lstm.bias_hh_l0 f4 [512]
00000000: b0e4 67bd 04f2 66b9 a549 ca3c 687d 6c3d
00000010: cca2 983d 3fcc 8bbd c301 ab3c d4a9 82bd
00000020: bb65 823c 566b 90bd 7b0c 4f3d f7b5 ad3d
00000030: 4059 2a3b 613b 463d 8586 cb3d f64f 9e3c
00000040: c9f0 94bc 9625 09bc 7aa8 a93d 12a1 883d
00000050: 60dd bdba 0545 71bc 87ac 013d af43 b1bd
00000060: d463 2f3c 9fde 7ebc c325 5abd 91e8 f23c
00000070: 3a35 8dbd 23d2 863d 770c 98bd a9fc 2ebd
00000080: 6fdf ae3c 505c 963d c7e3 923c 9a1d c43d
00000090: 81bf 263d 9672 383d bd48 75bd 20bc ab3d
000000a0: 34f7 c53b d9e7 0d3c 6039 943d 6b1d e43a
000000b0: 7dfb 4b3d 8e32 1e3d 1491 5e3c 33c3 2cbd
000000c0: 6590 693c 2351 6abd c4a8 ce3c 1f34 83bd
000000d0: b2c3 813d 16a7 80bb dd5d d63b 3224 9cbd
000000e0: 9486 993d 7dbb 883d 5355 dfbc 257d 16bd
000000f0: c388 773d d3be 8d3d 0766 4d3d beeb ba3d
00000100: 5fdc ac3c f45e 86bd 4be6 bbbc b18f 003c
00000110: 524c 01bd ae35 763d 2b64 a43c 85c6 a13c
00000120: 6876 51bd 2c97 913d e12e e2bc 0897 df3c
00000130: 7345 1ebd 15d6 203d c66b 06bd ff9e 20bc
00000140: ff56 893d a800 58bd 37bd c1bc 2418 863d
00000150: 9cd3 9b3d 0e2a 16bd 5743 09bd 2b1e b3bd
00000160: 8683 a53d a218 8cbd d2a2 223d c203 a6bc
00000170: 759d ae3d c15a 8fbd 9087 233d facf ddbc
00000180: d92c 083d d975 e13c bc0b eb3b 91cb 83bd
00000190: e9f3 713d 8481 65bb 88d2 82bd 2f36 863c
000001a0: 5626 513d e494 81bd e1c3 5bbd bb51 0bbd
000001b0: a1bf 77bd 686d 913d ea87 42bc 3e77 90bd
000001c0: 3120 b3bd 8d3f 8e3d 8aa8 88bc 27dd 7b3b
000001d0: 0a1e debc f2a5 6e3d c6ef 8c3d 9c1b 62bd
000001e0: c25c 503d 1310 1a3d f426 323d eb2d b4bc
000001f0: 87e5 823d 11b3 8a3d 7ca8 54bd 983b e43c
00000200: 7373 81bd 711b 05bd cd3e 403d a7c2 9fbd
00000210: 1871 64bb 5408 ee3c aab1 88bd 229e 98bd
00000220: 9cb8 af3a a0aa 1539 049a 17bc d65f 5d3d
00000230: 3ba0 95bd 9845 25bd dc42 bb3d 6eba 64bd
00000240: 83b2 823b e2eb 953d 12a4 543d 1eba 81bd
00000250: 50b7 703d e039 27bd 4562 dc3c 72e2 8abd
00000260: e80b 17bd a246 4c3d d6f2 793d a3e1 473d
00000270: 733a 3cbd 7014 8abd 9464 953d 94cc 0d3d
00000280: 72e7 8c3d bfb2 133a 5719 313d 7fad 41bd
00000290: c3cf 95bd 00bc 78bd ef96 093d 945e 4c3d
000002a0: 88a8 873c ba9b 943d ecd8 fdbc 884b 71bd
000002b0: b1df 923d 2c6e 24bd 0502 df3d ee1a c03d
000002c0: 4401 ea3b 05af 2bbb 8e81 d1ba e008 f03c
000002d0: 4902 58bd 0371 9dbd 5b33 e7bc 5d38 1b3d
000002e0: 26b7 653d c7e7 a1bd 4f6d 9f3d 528e 95bd
000002f0: dbf8 79bd 48fa 9abd 7201 fe3c fad9 9d3d
00000300: 97de 703d c497 9ebc 9a87 05bc 939a 8dbd
00000310: 89ea 023d e7ad e33c bf36 8ebd 836b a73d
00000320: 89ce 55bc b4a4 e0bc dc45 843b d228 1cbd
00000330: 3a2f b63d d79c d4bc 55db b63d fd98 8f3c
00000340: d205 843d 2c17 033b 8287 943d e26f a93d
00000350: 452c 9f3d 500c a03d 04e1 37bd d51e 5f3c
00000360: f3b6 293c 48dc 85bd 5a4e c7bc 658b 7bbc
00000370: 897d fdbc f098 ce3c d23c fc3c 589b 68bd
00000380: fd4d c63d 95a8 8fbd 874b 463d 80fb 5fbb
00000390: 7b46 cd3c fcb8 3abc d9b8 923d 349b 5d3d
000003a0: 8267 fa3c 890e c23c 910e 433d 3d24 f93c
000003b0: eff5 a5bc 1701 a0bd 4689 bc3d 7ec9 463c
000003c0: fd07 8a3d 6437 3e3c 780b 13bb 2a0b bd3d
000003d0: 727e a2bd df94 a83a 9f77 b3bd 041e b03d
000003e0: 4532 5dbd a884 893d 81bc 4b3c fa3f 93bd
000003f0: 7225 463d ecbb 693d 046b 2f3d 1d3c 8b3d
-0.056614578 -0.00022024667 0.02469332 0.057736784 0.07452926 -0.06826066 0.020874863 -0.063800484
0.01591765 -0.07051723 0.05054901 0.08481973 0.0025993139 0.048396472 0.09937767 0.019325238
-0.018181222 -0.008370778 0.082840875 0.06671347 -0.001448553 -0.014725928 0.031658676 -0.08655488
0.010704953 -0.015556007 -0.05325867 0.029651912 -0.06894918 0.06583049 -0.074242525 -0.042721424
0.021346776 0.07341826 0.017930878 0.095759585 0.040709976 0.045031153 -0.05988382 0.08385491
0.006041432 0.008661234 0.07237506 0.0017403787 0.049800385 0.03862243 0.013584394 -0.042178344
0.014255618 -0.057206284 0.025226958 -0.06406426 0.06336154 -0.003926168 0.006541951 -0.07624091
0.07496372 0.066763856 -0.027262365 -0.03674044 0.06043316 0.069211625 0.05014613 0.091269955
0.021101175 -0.065610796 -0.02293696 0.007846759 -0.031566925 0.060109787 0.020067295 0.019747982
-0.05113831 0.07108912 -0.027610244 0.027293697 -0.03864045 0.039266665 -0.032817625 -0.009803533
0.06706046 -0.052735 -0.023649795 0.06547573 0.07608721 -0.0366612 -0.033511486 -0.087459885
0.08081727 -0.06840636 0.03970606 -0.020265464 0.08526126 -0.06999732 0.039924204 -0.02707671
0.033245895 0.027522014 0.0071730297 -0.064353116 0.0590705 -0.0035019824 -0.06387812 0.016383259
0.05106195 -0.06327227 -0.0536536 -0.03401349 -0.060485486 0.07100946 -0.011873225 -0.07053994
-0.087463744 0.06945715 -0.016681928 0.0038431378 -0.027113933 0.058263727 0.06881671 -0.05520211
0.05086971 0.037612986 0.04349418 -0.021994552 0.06391435 0.067724355 -0.05191849 0.027860448
-0.06320848 -0.032496873 0.04693489 -0.07800799 -0.0034857448 0.029056706 -0.06674512 -0.074520364
0.0013406458 0.0001427331 -0.009253029 0.054046474 -0.07305952 -0.040349573 0.09143612 -0.055841856
0.0039885654 0.07320382 0.051914282 -0.06334327 0.05876857 -0.04082668 0.026902327 -0.06781472
-0.03687659 0.04987205 0.061022602 0.04879917 -0.04595418 -0.067421794 0.072945744 0.03461893
0.06880082 0.000563424 0.043237057 -0.0472846 -0.07315018 -0.060726166 0.033591207 0.049894884
0.016559854 0.07256265 -0.030987225 -0.058909923 0.07171572 -0.04014413 0.10889057 0.093801364
0.007141264 -0.002619685 -0.0015984045 0.029301107 -0.052736554 -0.07687571 -0.02822273 0.03789555
0.056082867 -0.07905536 0.07784521 -0.07302536 -0.061028343 -0.075672686 0.031006549 0.07707591
0.05880603 -0.019359477 -0.008150006 -0.06914248 0.03196195 0.027792884 -0.06944036 0.08174803
-0.01304973 -0.027422287 0.004036648 -0.038124867 0.088957265 -0.025953693 0.08928553 0.017529005
0.06446423 0.0020002825 0.072524086 0.08273293 0.077721156 0.078148484 -0.044892326 0.013618191
0.01035856 -0.06536156 -0.024329353 -0.015353058 -0.030943649 0.02521941 0.03079072 -0.056788772
0.09682844 -0.07014576 0.048411872 -0.0034177005 0.025058022 -0.011396643 0.07164163 0.05410309
0.030566934 0.023688572 0.047621313 0.030412788 -0.020258872 -0.07812708 0.0920587 0.012133
0.06739805 0.011609886 -0.0022437256 0.09230645 -0.07934274 0.001286175 -0.0876305 0.08599475
-0.05400302 0.06714755 0.01243508 -0.07189937 0.048375554 0.057063982 0.042826667 0.06798575

lstm.weight_ih_l1 f4 [512, 128]
00000000: 9209 b8bd 022f 453d 9294 f9bc daa3 913c
00000010: bd72 68bd 9c89 b5bd 13a0 183c 7b48 88bd
00000020: 9a61 dabd 5fa9 8f3d 449b cdbd 0d20 10bd
00000030: c8af 443d 3e67 c03d aa7f 823d ae66 223d
00000040: 7113 843d b08c 5abc e219 8dbd 6808 763d
00000050: 4540 1c3c dd2a 2c3c 4c06 9a3d 7f7e 073d
00000060: b352 86bd 2b19 3d3d 99df 14bb 69aa 8dbd
00000070: a701 70bd 3515 ecbc 263f bc3c 977b 79bd
00000080: 64a9 163d b3d9 1e3d 7158 54bd 985d 65bd
00000090: ed6a a2bd cf06 39bd 04bc d0bd 0755 213d
000000a0: 924b 5c3c f669 053d 5aaf 573c 5d2c aebd
000000b0: 02d1 10bc a670 0abd 8505 c4bc 3270 2c3d
000000c0: b19d 4dbd d7bf 8f3d 7f76 693d 00da 7bbd
000000d0: 1124 233d 7caf 663d 9557 083d 3ab4 f3bb
000000e0: e39d 8bbd 2023 543c 74a1 933c 109b bfbd
000000f0: 64e2 5cbd f316 89bd 763e 93bc f04c 123d
00000100: b0bb 9f3d d3f1 a0bd 1242 373c 0fbb 603d
00000110: c0a6 52bd a47b a5bd 1396 703c ba5a 32bc
00000120: a24c d4ba c774 f2bc 74ff bfbd db9e b93c
00000130: cb32 213d a755 25bd 8109 403d ffb9 87bb
00000140: 1280 81bd a917 87bc 23ce 203b 5ef2 04bd
00000150: 29de 613d 11f8 79bd 2586 443c c27c 323d
00000160: 7133 8fbd fedf 943d c713 9abb 2c71 063d
00000170: 2b31 013d 1f65 36bc b835 83bd 146e acbc
00000180: 5010 1abd ebcb 523c d3ef 16bd 0361 cb3c
00000190: 5eba 893d dd5b c33d 762f bc3d e47d b73d
000001a0: fc3b a33d 72e7 e73c a5c4 9f3c 7954 a9bd
000001b0: e575 843d b21e bfbc 3631 9dbd 1a0b 943c
000001c0: 33b1 40bd 9282 853d d60e a13d 2a6f f73a
000001d0: a8cc 373d ddd7 95bc 9681 a93d e8d5 3a39
000001e0: d093 0dbd 35ad 8f3d 3e9c c43c 5971 6a3d
000001f0: 72bd 61bd c079 29bd 6a28 973c 93a7 fb3c
00000200: 86be 68bd c7b6 0abb aabb 023d ee2c a43c
00000210: 7e02 6cbd 9c55 85bd e3c4 63bb ef7a b23d
00000220: 70d3 37bd e88d 443d c91b 133d 0d36 6bbd
00000230: 453e 1ebd ba35 aa3d fbea 82bc 3677 00bd
00000240: b065 c6bd 0531 ac3d e891 583d a63f 32bc
00000250: 7554 91bc a0ce 34bd 1db8 97bc 27f7 9cbc
00000260: 631e 113b 2949 4fbd f527 7d3c b9f4 cf3d
00000270: 6f01 89bd b753 8f3d 8ec3 37bd 0612 cd3d
00000280: c7d9 c43d dda7 2e3d 5f94 86bc 0281 dcbd
00000290: 8bd9 e7bb edde b13d 8f01 5f3d 19ea 2ebd
000002a0: 5058 823c 15d7 65bd b1fc 5e3c 3d5c 913d
000002b0: 74f5 bebd 7bb4 06bd 9153 cb3b 428a 25bc
000002c0: b9ce 3c3d d086 843d 2ab0 fa3b 5586 753d
000002d0: 7d9a 4dbd 8d90 1bbd 53b3 a2bd 1d32 6abd
000002e0: 2468 753d 1fd3 e0bd 9182 f1bc 06b2 853d
000002f0: 1b63 b33d c3f5 b73d 8cb9 ad3d 26b5 803d
00000300: fe22 c8bc 6a7f fcbc c264 373d ad56 88bd
00000310: 0609 603b 7ed1 b93d a037 883d 6aad a3bd
00000320: 3e23 78bb de20 a63d 1b74 353d 6445 e83c
00000330: 262f 223d 681b a73b 771e 7bbd 63fc b4bd
00000340: 856a 3abc 06c6 95bd 3bd9 de3c 9458 063c
00000350: e092 9a3c fdc1 91bd 6845 b1b8 bbe4 813c
00000360: db7e d83d 6719 a73d 4f81 c9bc 1a9f 72bd
00000370: b804 9c3c e010 b6bd 2732 5fbd 3973 a9bc
00000380: 0cee bebd 7180 403d 8569 3dbc 4439 593d
00000390: 2e7b 54bd 1f55 6ebd f800 573d 8543 fd3b
000003a0: 96ec e63c 3f36 d3bc 4af5 be3d 622b 833d
000003b0: c689 d03d 802a a13d 21dc 643d 6628 46bd
000003c0: ec1d c13d 73b8 2dbd ac53 ae3c 9d16 363d
000003d0: 4423 883d 9138 d2bd 8eab b1bd 8057 983d
000003e0: 5999 bc3c f225 783c 720f 36bd 8072 e83d
000003f0: 6533 063c 44b8 70bd 9912 c2bc 6c44 ee3d
-0.089862004 0.048140533 -0.030466352 0.017778326 -0.056750048 -0.088641375 0.009315508 -0.066544496
-0.10663147 0.07014727 -0.1003938 -0.035186816 0.0480192 0.09394692 0.06372006 0.039648704
0.06449021 -0.013339207 -0.068897024 0.06006661 0.009536807 0.010508266 0.07520732 0.03307962
-0.065587424 0.04616658 -0.0022716282 -0.06917269 -0.058595326 -0.028818706 0.02297933 -0.06090888
0.036782637 0.038781833 -0.051842157 -0.05599746 -0.07930551 -0.04517251 -0.10192111 0.03938773
0.013445752 0.032571755 0.013164366 -0.085045554 -0.008838894 -0.033798836 -0.023928413 0.042099185
-0.050199214 0.070190124 0.056997772 -0.061487198 0.039829317 0.0563197 0.03328665 -0.007437256
-0.06817224 0.012947828 0.018021323 -0.09355748 -0.05392684 -0.0669383 -0.01797412 0.035717905
0.077994704 -0.07858624 0.011185186 0.054865893 -0.051428556 -0.08080223 0.014684218 -0.010885889
-0.0016197155 -0.0295967 -0.09374896 0.022658756 0.03935508 -0.040364888 0.046884064 -0.0041420455
-0.063232556 -0.016490774 0.002453693 -0.0324577 0.05514351 -0.06102759 0.011994873 0.04357601
-0.069922335 0.072692856 -0.0047020647 0.032822773 0.03154103 -0.011132508 -0.064067304 -0.021048583
-0.037613213 0.012866001 -0.036849808 0.024826532 0.06725 0.09539006 0.0918874 0.089595586
0.079704255 0.028308604 0.019502947 -0.08268065 0.06467799 -0.023330066 -0.07675402 0.0180717
-0.04704399 0.06519045 0.07864158 0.0018877734 0.04487291 -0.018291408 0.0827667 0.00017818029
-0.034564793 0.070154585 0.024000283 0.057237003 -0.05511231 -0.041375875 0.018451888 0.030719554
-0.056822322 -0.0021166073 0.03191725 0.020040955 -0.057619564 -0.06510469 -0.0034754805 0.08714854
-0.044879377 0.047986895 0.03591517 -0.057424594 -0.038633604 0.08311029 -0.015981188 -0.03136369
-0.09687364 0.08407787 0.052873522 -0.010879433 -0.017740468 -0.044142365 -0.01852041 -0.01916082
0.0022143356 -0.05060688 0.015451421 0.10154099 -0.066897266 0.06998389 -0.04486423 0.10013203
0.0961185 0.042640556 -0.01642817 -0.10766794 -0.0070754937 0.08685098 0.054444846 -0.04270372
0.015911251 -0.05611332 0.013610051 0.07097671 -0.0932416 -0.032886963 0.0062050303 -0.010103764
0.046095584 0.06471026 0.007650395 0.059942562 -0.05019616 -0.03797965 -0.0794436 -0.057176698
0.05991377 -0.10977768 -0.029481204 0.06528096 0.08759137 0.08982422 0.08482656 0.06284551
-0.024430748 -0.030822475 0.044773825 -0.06657157 0.0034185066 0.090731606 0.066512346 -0.079920605
-0.0037862803 0.08111738 0.04430018 0.0283534 0.039595746 0.0050997026 -0.06130835 -0.088372014
-0.011377935 -0.073131606 0.027203193 0.00819983 0.018868864 -0.071170785 -8.4529456e-05 0.015856137
0.10571071 0.08159142 -0.024597792 -0.059233762 0.019045219 -0.088899374 -0.05449119 -0.020684825
-0.093227476 0.04699749 -0.011560802 0.05303313 -0.051875286 -0.058186647 0.05249116 0.007728996
0.028188985 -0.025782702 0.09324129 0.06404759 0.10182528 0.07869434 0.055873994 -0.04837837
0.09429535 -0.042412233 0.021280132 0.04445516 0.066473514 -0.102646954 -0.086752996 0.07438564
0.02302234 0.015145766 -0.044448324 0.11349964 0.008190964 -0.05876948 -0.023690509 0.11634144

lstm.weight_hh_l1 f4 [512, 128]
00000000: ad76 883b ce8b 82bd a41f 203d 3bef 573d
00000010: eeb4 74bd b7e2 143d dc12 a03d 96ff a33d
00000020: 10f6 e43c 1477 a03b 96df 6a3d 62fa be3b
00000030: a9a7 673d d36b f03c ecdb 58bc d92b 8c3c
00000040: 0215 b83b 35f8 6dbd 5973 8bbd 5874 9ebc
00000050: 824b a7bd d82c 0fbc bbb9 2d3d 745b c73b
00000060: 648a 113b b291 08bd e144 923d 3ad4 36bd
00000070: 9a48 843c 28b2 25bd 70a9 7cbc 9d08 4f3d
00000080: 9173 7ebd 6e6f 49bd 2203 8d3d 5e49 46bd
00000090: 4f9d 99bd a389 083d 46a3 703d 343e ae3d
000000a0: 68db 3bbd a9ae 0abb 72ec 79bc fa6a a4bd
000000b0: 686e 6abd 31ee a6bd 189d 78bd 56dc a73d
000000c0: 513e f4bb bcc0 963b 78dc aa3c d351 01bc
000000d0: 4c93 bf3d 3b79 aa3c 12a7 813d eaed 383d
000000e0: b35a 353d 11fa b43b 6ed8 93bd 8a8b 963d
000000f0: b71f 293d 146b 853d b018 89bd 771a b7bd
00000100: eba3 8c3d e6f6 063d baed 9b3d be6f 4b3d
00000110: 3236 bcbd c860 853c 9a1e 4cbd d727 7f3d
00000120: c0ab 563d fe56 d73c 4864 7bbd 8a2c 9d3d
00000130: 327a 5a3c 3b4a 39bd b66d f2bc e8f8 c1bd
00000140: d0d4 a63c 779b 8f3d 5e26 1e3d d529 ec3c
00000150: 69fa 6cbd 5a1c 96bc 5383 e33c 7aac 823d
00000160: dad2 8d3d 59c4 a7bd d4be 4b3d 9e4c 1e3d
00000170: ac5b a4bd 6091 f63b 7e4d 4abc 2d52 be39
00000180: 9cd7 793d daa8 d0bd 327d 7d3d 7641 223c
00000190: 8999 8dbc 00ba 653c de36 20bd 67a6 b9bc
000001a0: 69b4 383d 4514 6a3c b4b6 5ebc 2068 4bbd
000001b0: 99ea 6ebd 6f62 623d 4581 87bd d743 63bd
000001c0: fb28 1bbd 8f27 473d 95bb b6bc a9c4 0ebd
000001d0: c05a 6f3d af95 3b3d 6c4c a1bd 436c 8bbd
000001e0: 45fc ba3c 8c91 163d 9962 943d e08c 7dbd
000001f0: c292 753d 81f3 cbbc 1854 953d 964c 3e3d
00000200: c28a 4ebd 8fb8 a63d 34a0 4e3d bf3f fdbc
00000210: 8fec 7dbc 9615 893d b2cd 91bc 9e2a e53c
00000220: c391 babd 30ed 883d cb80 b0ba 3bf0 99bd
00000230: 2b5d ba3d 9dcd 203d 6828 9bbd 8c0a 213c
00000240: a1e8 963d 7c66 a03d 5b57 823c 6a67 bc3d
00000250: 6c91 2f3d 6f9f c1bc a75b 343d d999 96bd
00000260: eebd 9a3d 8cef 12bb ed67 3c3c 89b3 483b
00000270: 5cf4 ce3d ed0a 6a3c c7b3 05bd 8572 833d
00000280: 22b1 d7bc 7009 a3bd 0206 0fbc d2ef afbc
00000290: 6ad4 99bd a9de 11bd 93d4 9c3d 89a8 9abd
000002a0: da0a a7bd f234 173d 0b34 0f3c e4fd a9bd
000002b0: 3704 49bd dfc6 6c3d f2a8 483d 9e05 a8bd
000002c0: f58c 18bd 9208 143d eafe 083d 087d c43c
000002d0: e62c 923d 5f94 bfbd a7dd 7d3d f2e6 983d
000002e0: d86d 353d ea7d 0cbd 2ba9 193d 17ab 1d3d
000002f0: edc8 79bd d2ed 0ebd afb2 dc3d f4d5 6cbc
00000300: 4a5f 0ebd 3eea b3bd 92ca 273d 76ae a0bd
00000310: e0d3 873d be3e 5d3d 1757 593d 77fd e6bb
00000320: fba6 8b3d 603e 34bd 4da6 c6bc a809 df3d
00000330: d506 993c edfd 7d3d 4a58 573d e4cb 4fbd
00000340: ef43 553d 0ca4 273d 243a f0bc 9f0a 8dbd
00000350: 5416 6ebd 4824 553d be1e 8fbd 4aea df3a
00000360: 593f e13b ff65 b53c 112f a9bc bc03 683d
00000370: b711 1a3d 38c8 713d 8b38 d23c 3f2f 82bd
00000380: 3480 af3d 341d d83c 4ad4 4a3b fa25 96bd
00000390: a11d 4ebd 5d33 943d 38e8 b33d 9879 57bd
000003a0: 4ab2 ba3d 7bbb ccbb bc27 01bd 7b61 833d
000003b0: 7758 aebd 429b 12bb 817a b1bd f37e 3b3c
000003c0: 83c0 d23b 28ce 96bd b293 943c bc3b eebc
000003d0: ed17 9fbd 28e1 d43c ff37 e3bd 96d9 8a3d
000003e0: 7066 843d 7fbc d3bc 66b9 acbd e74b 983d
000003f0: 73b6 9f3d a653 04bd 8019 cdbc 0180 0dbd
0.004164538 -0.06374322 0.039092675 0.052718382 -0.05974286 0.036349025 0.07816097 0.080077335
0.027949363 0.0048970077 0.057342134 0.005828188 0.056556378 0.02934829 -0.013236027 0.017110752
0.0056177387 -0.058098037 -0.0680911 -0.019342586 -0.08168699 -0.008738719 0.042413455 0.0060839
0.0022207731 -0.03334207 0.07142044 -0.04463599 0.0161479 -0.040453106 -0.015421256 0.050545324
-0.06212193 -0.049178533 0.06885363 -0.048409812 -0.07500707 0.033334386 0.05874946 0.08507958
-0.04586354 -0.0021161234 -0.015254127 -0.08028217 -0.057234198 -0.081509 -0.06069669 0.081963226
-0.0074537178 0.0046006124 0.02085708 -0.007893044 0.093542665 0.02080976 0.06330694 0.045148768
0.04427595 0.0055229743 -0.07219015 0.07350834 0.04129001 0.06514564 -0.06694162 -0.08940595
0.06867202 0.032950304 0.07613702 0.049667113 -0.091900244 0.0162815 -0.04983387 0.062293854
0.052409887 0.026286598 -0.061374933 0.07674511 0.013334798 -0.045236807 -0.02959333 -0.09471303
0.020365149 0.070120744 0.03861081 0.02882854 -0.057855997 -0.018324066 0.027772581 0.063805535
0.06924982 -0.08191747 0.049742535 0.038647287 -0.080252975 0.0075246543 -0.012347577 0.0003630085
0.060996637 -0.10188456 0.061886974 0.009903302 -0.017285125 0.014021397 -0.039114825 -0.022662355
0.045093928 0.014287059 -0.0135933645 -0.04965985 -0.0583292 0.055269655 -0.06616453 -0.05548462
-0.03788088 0.04862171 -0.022306243 -0.03485552 0.058436155 0.045797046 -0.078759044 -0.06807759
0.02282537 0.036759898 0.072453685 -0.061901927 0.059954412 -0.024896385 0.0729143 0.046459757
-0.0504253 0.081406705 0.05044575 -0.030914186 -0.0154982945 0.0669357 -0.017798278 0.027974423
-0.09109833 0.06685865 -0.0013466118 -0.075165235 0.09099802 0.039258588 -0.07576066 0.009829175
0.07368589 0.07832047 0.015910795 0.09199412 0.042863294 -0.023635594 0.04403272 -0.07353563
0.075557575 -0.0022420613 0.011499387 0.003062459 0.101052016 0.0142848315 -0.032642152 0.06418327
-0.02632958 -0.079607844 -0.00872946 -0.02147666 -0.07511218 -0.035612736 0.07657733 -0.07551677
-0.08156367 0.036915727 0.008740435 -0.08300379 -0.049076285 0.057806846 0.048989244 -0.082041964
-0.037243802 0.036140986 0.03344623 0.0239854 0.0713747 -0.093544714 0.061978962 0.07465924
0.04429421 -0.03429977 0.037514847 0.038493242 -0.060982633 -0.034894772 0.10776269 -0.014455307
-0.034758843 -0.087849125 0.04096467 -0.07845776 0.06632209 0.054014914 0.05306157 -0.0070492583
0.06818958 -0.044004798 -0.02424922 0.10890514 0.018680016 0.06200974 0.052574433 -0.050731555
0.05206674 0.04092793 -0.029324599 -0.068867914 -0.058126763 0.052036554 -0.069882855 0.0017083373
0.0068740067 0.022143362 -0.020652326 0.056644186 0.03761455 0.059028834 0.025661727 -0.06356668
0.08569375 0.026381113 0.0030949288 -0.07331462 -0.050321225 0.07236359 0.087845266 -0.052606195
0.09116037 -0.0062479354 -0.031532034 0.06415077 -0.08512967 -0.0022370373 -0.08665944 0.011443841
0.0064316406 -0.0736354 0.018136833 -0.029081218 -0.07768235 0.02598627 -0.11094665 0.067797825
0.06464851 -0.025846718 -0.084337994 0.07436352 0.07798471 -0.032306336 -0.025036573 -0.034545902

lstm.bias_ih_l1 f4 [512]
00000000: 3ed4 80bd a97e c9bc f0f6 0bbd cced 443b
00000010: 9449 5b3d 88c2 a63d ef33 84bd 09b2 3ebd
00000020: 119a a83d 9070 a6bc 42e9 90bd 8f86 21bd
00000030: 62ec 6b3d 8341 7ebd 5f33 e23c 8e07 9e3d
00000040: 1cf7 9e3d 6c1f 163d 26e2 e5bb 6ced 8fbc
00000050: 84e5 5ebd bfd1 8e3d 4402 99bd 6a03 003d
00000060: 4168 bebd 70a2 87bc c1cd 4dbd 6096 813d
00000070: bc22 fdbc 7350 88bd 57b3 c23d 44bb b8bd
00000080: e14d 8e3d 3275 8d3d 253c 533d ca42 263d
00000090: af9b 4a3c 62c7 27bd 1306 d43c a41e 45bc
000000a0: 5169 d33c c4a5 ddba a573 34bd c1f6 29bd
000000b0: 2c2d a43d c215 a03d 6aa3 ffbc 54c9 d03d
000000c0: 440b 8c3c b611 f53c c81b 06bd 5853 413d
000000d0: 6323 963c 4429 dc3c 8a4e e43a 432d 76bd
000000e0: 2fab 803d 071f 813d 246d 72bd 0069 eabc
000000f0: c689 5a3a 824a bfbd bd91 a5bb 3fa8 aebd
00000100: 401b d93b 17d8 913d a3ef 773d 861c 363d
00000110: 01f2 ccbc 9ff4 16bd e85d 033d 8e39 993d
00000120: 2d8e 7cbd f07a fb3b 4d06 283d 94e2 14bd
00000130: c205 223c 7690 a13d f218 a6bd 8432 9f3d
00000140: 016a 2d3d ad84 82bd b38a 71bc e03c 683c
00000150: 6d36 cd3d 0d5f a6bd cd48 0dbd 498d d43c
00000160: 62a9 5c3d b374 513d 6423 29bd da82 ce3d
00000170: bdba aabc 52a2 163d 7064 953d 84c1 c93d
00000180: 5225 9e3c 22eb 91bb 7fd0 403d 3fa2 c73c
00000190: cf74 cdbd d8de 0d3d 9e0d abbc 9e03 443d
000001a0: ba1a dc3d 883a cc3d ae78 fcbb 6777 88bd
000001b0: 529e cc3d 6d35 903d 8aa8 993d 1b0b a4bc
000001c0: ee85 d43c 9f53 ca3d f507 ab3d 3c8d 903b
000001d0: 9d7e b7bd 531e e3bc 7ea2 c33d 79ec f53c
000001e0: 362c 813d d0b0 cfbc a5fd 833d 273e 73bd
000001f0: 18de ae3a 1d8d 233d 1c69 bb3d 997f 32bd
00000200: 8c9b 513d 8109 823d 6c2d 96bd a7d2 223d
00000210: 21f3 abba 2632 1e3b 4309 813d 9b50 e9bd
00000220: afbf d23d d366 d33b 3e4d 9abd c610 7b3c
00000230: 5e06 463c f094 ec3b 5c4f 7e3d 9933 123d
00000240: 92f0 8b3d 11f0 e03d 00d9 003c b7fe c83c
00000250: 8851 2e3c e87d 8a3c d790 013d 5fd0 c33d
00000260: 87d3 af3c be5d 5ebc 3a7a 20bd a815 debc
00000270: 5e72 f53b aa1c 1ebd cede a83d 70a4 c8bc
00000280: edb5 863d d7bb c03d 350d adbc 8eec c1bd
00000290: 8cce b1bc d9e4 73bd 472b 243d b1fc 3bbd
000002a0: 899c b13c d143 1ebd 52dc 183c 92d3 3fbd
000002b0: 3454 f0bc 3162 2cbd 01a9 8e3c 417a cf3d
000002c0: bc27 93bd c3ce ca3d f18c a33d d52d b73c
000002d0: 27ec 9bbd 3600 843a ac32 c1bc c757 033d
000002e0: 454b b43d e68d 3dbd 7502 deb9 ab53 d03d
000002f0: ebec b6bb cc78 9d3c fbd7 ba3d fc4f b5bd
00000300: 5a53 84bd acbc 5fbd ae8e 5aba 8bff 923c
00000310: f7f6 acbc 2205 603d 7a47 da3d 7447 1abd
00000320: f492 bc3d c26b e3bc 2be4 8a3c d7d0 c63d
00000330: 7643 adbd cee5 cab9 a1b2 75bd 3630 4a39
00000340: 5702 233c 5516 713b 0024 763d 0a5a 073c
00000350: 0004 c43b a839 b73c 72e1 3fbd ef29 b33d
00000360: 8606 1dbd dc58 6fbc 7cc5 8c3c 48e2 863d
00000370: 875a b83d 122f a73d 388a fdbc a5f0 2b3c
00000380: da54 a53c 9b62 d1bc 7e80 783d 9814 86bd
00000390: 9f91 4bbd b65c a4bb f221 2a3b 1fdd d8bc
000003a0: 8890 fdbc 74e5 483d a4bf 84bc 6463 b1bd
000003b0: 2abf 5abd 7851 7abc f208 c73c f944 cdbc
000003c0: 08cd 2bbc 89d6 4f3d e9ee ce3c f588 45bd
000003d0: 7002 1abd 4d64 93bd 4ffc a53d c5bd 493d
000003e0: 1af2 2c3c 0ae8 60bd 63fb 4e3d ba78 54bc
000003f0: ef03 4cbc 94cd 6b3c 3baa 963c a692 b2bc
-0.06290482 -0.02459653 -0.034171045 0.0030048965 0.053536966 0.08142573 -0.06455218 -0.046556506
0.08232511 -0.020317346 -0.070757404 -0.039434966 0.05759848 -0.062074196 0.027612386 0.07716285
0.07761976 0.03665106 -0.0070154844 -0.017569266 -0.054418102 0.069736 -0.07471135 0.031253256
-0.092972286 -0.016556948 -0.05024505 0.0632751 -0.030900352 -0.066559695 0.095068626 -0.09020093
0.06948448 0.06907119 0.05157103 0.04059104 0.012366219 -0.04096163 0.025881803 -0.012031231
0.025807055 -0.0016910364 -0.0440556 -0.04149509 0.08016428 0.0781665 -0.031205852 0.1019465
0.017095216 0.029915672 -0.032741338 0.047198623 0.01832742 0.026875146 0.0017418426 -0.06010176
0.06282651 0.06304746 -0.059186116 -0.028614521 0.000833657 -0.09340383 -0.0050527737 -0.08528184
0.006625563 0.07121294 0.06053127 0.044460796 -0.02501774 -0.036854383 0.032071978 0.07481681
-0.061659027 0.0076745674 0.041021634 -0.036348894 0.009889068 0.07888882 -0.08110227 0.07773307
0.04233742 -0.06372962 -0.014742541 0.01417467 0.100201465 -0.08123598 -0.034493256 0.025946276
0.053872474 0.051136684 -0.041293517 0.10083552 -0.020840997 0.036775894 0.072945476 0.09851363
0.019304905 -0.004453079 0.047073837 0.024369357 -0.10032045 0.03463635 -0.020880517 0.047855012
0.10747285 0.099721014 -0.007704816 -0.06663399 0.09991135 0.0704144 0.075028494 -0.020024827
0.025942769 0.09879231 0.08351127 0.0044113677 -0.089596964 -0.02772442 0.09552477 0.030019986
0.06307261 -0.025352865 0.06444863 -0.059385445 0.0013341336 0.039929498 0.091509074 -0.043578718
0.05117373 0.06349469 -0.07332882 0.039751675 -0.0013118723 0.0024138778 0.06300595 -0.113923274
0.10290467 0.0064514666 -0.07534264 0.015323823 0.012086479 0.007219903 0.0620874 0.03569374
0.068329945 0.10983289 0.007864237 0.02453552 0.010639556 0.01690574 0.03163227 0.09561228
0.021463169 -0.013572155 -0.039179064 -0.027109936 0.0074904403 -0.038601555 0.082456216 -0.024492472
0.06577668 0.094108276 -0.021124462 -0.09468947 -0.021704935 -0.059544418 0.040080335 -0.045895282
0.021681087 -0.038638894 0.009329872 -0.04683263 -0.029337026 -0.04208583 0.017414572 0.1013074
-0.07185313 0.09902718 0.07985867 0.022360722 -0.07613402 0.0010070864 -0.023583733 0.032066133
0.08803419 -0.046277903 -0.0004234497 0.101722084 -0.005582442 0.01922264 0.09123226 -0.088531464
-0.064612105 -0.05462329 -0.0008337301 0.017944118 -0.021113856 0.054692395 0.10658164 -0.0376658
0.092077166 -0.027761344 0.016954502 0.09707802 -0.08460133 -0.0003869966 -0.059984807 0.00019282181
0.009949288 0.0036786993 0.060092926 0.008261213 0.005981922 0.02236636 -0.04684586 0.087482326
-0.0383363 -0.014608588 0.017184012 0.065861285 0.09001642 0.08163275 -0.030949697 0.010494386
0.020182062 -0.025559714 0.060669415 -0.06546897 -0.049699422 -0.005015935 0.0025960174 -0.026472626
-0.030952707 0.04904695 -0.016204663 -0.086615354 -0.053404965 -0.015278213 0.024296258 -0.025057303
-0.010485895 0.050741706 0.025260406 -0.048226316 -0.03759998 -0.07196865 0.08104765 0.049253244
0.010555768 -0.05490879 0.05053271 -0.012968237 -0.01245211 0.014392275 0.01839172 -0.021798443
