runs/lstm/best.pt (torch, 409329 bytes, 6 tensors)

lstm.weight_ih_l0 f4 [512, 68]
-0.010127597 0.057028174 -0.10362815 0.00567443 -0.0478341 0.008453608 -0.10130001 -0.00219196
-0.06737462 -0.050153136 -0.0015866391 -0.007430624 -0.0572372 0.034225725 0.05026014 0.026134273
0.075549446 0.01235915 0.018613555 0.048369884 -0.0042770836 0.014540636 -0.042380944 -0.026755609
0.077383325 -0.0823843 -0.09212654 0.074540965 0.02928659 0.08128269 -0.048828583 0.0026383263
-0.016615143 -0.036072887 -0.10995546 0.013432918 -0.069148414 0.07440362 -0.06744166 0.122926846
-0.038724378 0.14056414 0.0124572655 0.021165054 0.010444524 -0.035050765 -0.07404092 0.10816174
-0.031312 0.04965976 -0.08842111 0.015722945 -0.09496035 0.023102611 0.069694705 0.028812489
-0.057561304 0.014044785 -0.039630245 -0.026907757 0.02194574 -0.015947195 0.02428611 -0.049791574
-0.060040362 -0.09054254 0.0026143692 -0.10167605 0.042858668 0.0727119 0.05572252 -0.036186043
0.025951363 0.008233842 -0.08250947 -0.09391147 -0.025759658 -0.06996196 -0.021379821 -0.023279343
0.05346035 0.045072936 0.050684534 0.07116078 -0.081606306 -0.09715113 0.022735536 0.022654407
-0.10287778 -0.019066704 0.036615532 -0.093214214 -0.05284853 -0.10582608 -0.043303326 0.018890204
-0.10342549 0.08718526 -0.08127305 -0.017146086 -0.05526961 0.060571425 -0.12315265 -0.05147214
0.022892188 0.060210858 -0.108576395 0.031442337 -0.08253521 -0.095804006 -0.049185224 0.03890998
-0.094377145 -0.07718089 -0.07274164 0.06211859 -0.08252743 -0.10964692 0.01178762 -0.003455775
-0.057559542 -0.10732076 -0.0015434696 -0.03339329 -0.023131054 -0.065871805 0.017820466 0.100086436
0.042880785 0.07647185 0.04102708 -0.051568173 0.013999002 -0.036326397 -0.07697388 0.018137464
-0.0040172297 -0.011224932 0.02114829 0.046930797 -0.028393108 0.011138447 0.046724875 -0.112829685
-0.026527643 -0.07238924 -0.06595342 0.054962654 0.077605926 -0.040359143 -0.08505696 0.011978988
-0.017418433 0.0007382033 0.015236038 0.09237807 0.038478266 0.04926169 -0.054744314 -0.048255157
-0.022462958 -0.15487301 9.3205046e-05 0.081792526 -0.021859426 0.032301735 -0.037521753 0.018586101
0.038280245 0.004392348 0.11265057 0.038752817 0.036023505 -0.061814677 0.1248512 -0.008563885
0.1585936 0.024694927 0.045319937 -0.040645204 0.051640507 -0.0530668 0.05261401 0.07247695
-0.04742089 0.051856376 -0.05972718 0.03270383 0.10263131 -0.013462453 -0.034901302 0.05812151
-0.03669428 0.015366823 -0.022274883 -0.01924792 -0.060362108 0.059802227 -0.033439085 0.011026519
-0.036307458 -0.07120714 -0.012358073 0.05290957 0.038361277 0.0690086 -0.05348172 -0.08699153
-0.031792935 -0.079933986 0.088548146 -0.07050835 -0.06473175 0.023794577 -0.027381297 0.05055732
0.09171299 -0.09502547 -0.018889181 0.026960917 0.011407642 0.02113862 -0.07860107 0.057550415
-0.009582601 -0.052842427 0.077873774 -0.12689756 -0.004186305 -0.05744794 -0.07321333 0.09280896
-0.033949215 -0.026565565 -0.035614952 0.024622496 0.06258702 0.030459544 -0.014411104 -0.049957022
0.01088049 0.028978009 -0.05373839 -0.076057464 -0.0042287223 -0.018550593 -0.09187066 -0.10253978
0.06561272 -0.07040422 -0.032578334 -0.120600894 0.074409775 -0.0151893515 -0.012137866 -0.07193477
00000000: 38ee 25bc 6096 693d ff3a d4bd 92f0 b93b
00000010: b0ed 43bd 0081 0a3c 6176 cfbd fda6 0fbb
00000020: b4fb 89bd 606d 4dbd c6f6 cfba 987c f3bb
00000030: 8e71 6abd 4630 0c3d 94dd 4d3d 8b17 d63c
00000040: abb9 9a3d 087e 4a3c 747b 983c 801f 463d
00000050: c726 8cbb d93b 6e3c a497 2dbd 942e dbbc
00000060: 267b 9e3d 1ab9 a8bd d7ac bcbd efa8 983d
00000070: 6eea ef3c 8a77 a63d 7b00 48bd c5e7 2c3b
00000080: 7b1c 88bc 2ac1 13bd 5430 e1bd be15 5c3c
00000090: af9d 8dbd ed60 983d da1e 8abd 12c1 fb3d
000000a0: 749d 1ebd 0cf0 0f3e 8f19 4c3c 5662 ad3c
000000b0: 821f 2b3c 6491 0fbd c4a2 97bd e783 dd3d
000000c0: 0341 00bd 0868 4b3d 2016 b5bd 68cd 803c
000000d0: 927a c2bd b041 bd3c 19bc 8e3d 2b08 ec3c
000000e0: 67c5 6bbd 191c 663c 5353 22bd a86d dcbc
000000f0: 8dc7 b33c b1a3 82bc aaf3 c63c 40f2 4bbd
00000100: e2ec 75bd 5e6e b9bd d655 2b3b 883b d0bd
00000110: 928c 2f3d fae9 943d 4c3d 643d d137 14bd
00000120: f497 d43c 3de7 063c bafa a8bd a854 c0bd
00000130: eb05 d3bc 3748 8fbd bc24 afbc 52b4 bebc
00000140: 3df9 5a3d 669e 383d 969a 4f3d bebc 913d
00000150: 3521 a7bd 2cf7 c6bd e03f ba3c bc95 b93c
00000160: 96b1 d2bd c731 9cbc 2bfa 153d 18e7 bebd
00000170: b377 58bd 58bb d8bd d45e 31bd a1bf 9a3c
00000180: bed0 d3bd 308e b23d 7c72 a6bd f375 8cbc
00000190: 6362 62bd be19 783d 7537 fcbd 73d4 52bd
000001a0: 6688 bb3c a99f 763d 4d5d debd aec9 003d
000001b0: 3808 a9bd e434 c4bd 7276 49bd 1260 1f3d
000001c0: ce48 c1bd 0411 9ebd 92f9 94bd 1070 7e3d
000001d0: 2404 a9bd 908e e0bd dd20 413c 497a 62bb
000001e0: 8ec3 6bbd fdca dbbd 3f4e caba 67c7 08bd
000001f0: 567d bdbc cce7 86bd 3afc 913c 1efa cc3d
00000200: c3a3 2f3d 469d 9c3d 030c 283d 2639 53bd
00000210: 125c 653c fdca 14bd 7ba4 9dbd 0595 943c
00000220: f7a2 83bb c7e8 37bc 2e3f ad3c 823a 403d
00000230: aa98 e8bc 087e 363c 9562 3f3d 4013 e7bd
00000240: 8050 d9bc cf40 94bd 9612 87bd 8520 613d
00000250: dbef 9e3d a14f 25bd 5832 aebd 8443 443c
00000260: 1ab1 8ebc fc83 413a 93a0 793c b730 bd3d
00000270: 639b 1d3d a0c6 493d 933b 60bd 33a7 45bd
00000280: 3d04 b8bc 0897 1ebe 1477 c338 d782 a73d
00000290: 8a12 b3bc d34e 043d 69b0 19bd e141 983c
000002a0: bfcb 1c3d b0ed 8f3b 58b5 e63d 46bb 1e3d
000002b0: 628d 133d 6331 7dbd fcb1 ff3d 8a4f 0cbc
000002c0: 5c66 223e 044d ca3c 66a1 393d 967b 26bd
000002d0: ff84 533d 935c 59bd ca81 573d cc6e 943d
000002e0: 683c 42bd 5a67 543d 7da4 74bd 74f4 053d
000002f0: 5d30 d23d 9f91 5cbc abf4 0ebd d210 6e3d
00000300: be4c 16bd 21c5 7b3c d179 b6bc d0ad 9dbc
00000310: 423e 77bd 2ef3 743d 6cf7 08bd 93a8 343c
00000320: 21b7 14bd 0dd5 91bd 8479 4abc b5b7 583d
00000330: b720 1d3d 6254 8d3d a60f 5bbd 9e28 b2bd
00000340: 4f39 02bd 6eb4 a3bd bb58 b53d af66 90bd
00000350: 1492 84bd d8ec c23c be4e e0bc 3115 4f3d
00000360: 05d4 bb3d b79c c2bd 7cbd 9abc 24dd dc3c
00000370: 1ee7 3a3c e62a ad3c 99f9 a0bd fcb9 6b3d
00000380: 5700 1dbc 4d71 58bd 497c 9f3d 6ff1 01be
00000390: 462d 89bb 884e 6bbd dff0 95bd a012 be3d
000003a0: 550e 0bbd 07a0 d9bc fce0 11bd 1eb5 c93c
000003b0: a02d 803d 4b86 f93c 8d1c 6cbc bc9f 4cbd
000003c0: 1544 323c 4a63 ed3c c91c 5cbd 04c4 9bbd
000003d0: 1891 8abb 6af7 97bc af26 bcbd 6000 d2bd
000003e0: f65f 863d 1630 90bd dc70 05bd 9afd f6bd
000003f0: 2764 983d c2dc 78bc e6dd 46bc 8952 93bd

lstm.weight_hh_l0 f4 [512, 128]
-0.033135384 0.047053367 -0.03682118 0.020014709 -0.07962207 0.04013058 -0.047230914 0.043050084
0.11653905 0.049061462 0.076995365 -0.075138494 0.016434893 -0.05908704 0.08979521 -0.047530215
-0.04542588 -0.04596076 -0.084638394 -0.11842194 0.017861333 -0.05486517 0.010563517 -0.006329087
-0.05562408 0.08492379 -0.019095996 -0.003943159 -0.06977664 0.08866034 0.047112036 -0.071102746
0.04678194 0.04239117 0.029122876 0.011396838 -0.10927069 -0.042663027 -0.06272143 0.090982206
-0.06835236 0.06299341 0.026757613 0.009788028 -0.009137799 -0.004440839 0.058496643 -0.008820939
0.018464386 0.057226334 -0.012294545 -0.0718966 -0.05640421 -0.0629224 0.009655168 0.03987055
-0.0061429837 0.1153075 0.055379502 0.07613178 0.032574814 0.014192601 0.08812252 0.046774685
-0.047261078 -0.022112658 -0.10117948 -0.005812155 0.044196375 0.087558344 0.045222778 0.033671785
0.016401695 -0.053611193 -0.08583295 0.0015286909 -0.056796823 0.0708689 0.028698485 -0.05932921
0.08200699 -0.12856479 -0.039312307 0.089617684 -0.0633444 0.0621937 -0.037283964 0.03221318
0.07978314 0.02530875 -0.066501185 -0.06741674 -0.032734204 0.016751671 -0.06482895 0.019568881
-0.012970311 0.09728259 0.05124707 -0.011206568 0.09668329 0.006305437 -0.020116918 0.02147799
0.056317233 0.08736966 0.06813482 0.0036384773 0.024679184 -0.022317275 0.07613451 0.052545667
-0.05989622 0.0404344 -0.11972077 0.0523651 0.0677574 0.05563542 0.03719156 0.0012437975
-0.047143616 0.054597653 0.04672573 -0.06916852 -0.08204625 -0.09660146 -0.03535981 -0.046033654
0.006485591 -0.045956284 -0.06998867 -0.043790024 0.02599367 0.019895773 -0.02054584 -0.027364107
-0.087065846 0.0082069095 0.053606186 0.0030218055 0.05157237 -0.050718628 0.0067483094 0.00025520683
-0.005945895 -0.043374054 -0.058772966 -0.077364 -0.0071902885 -0.0051349127 0.03712997 -0.07633654
0.02163519 0.013430277 0.026201116 0.020215683 -0.033929326 -0.054331698 0.0067201126 -0.05544638
-0.040534887 0.0005784653 -0.05097394 -0.027459849 -0.10653594 -0.033992417 0.047968872 0.060315154
0.07255877 0.046030067 0.07859006 -0.09209452 0.018319676 0.08992787 -0.042299945 -0.059412517
-0.05628808 0.021075245 0.05915267 0.056753773 -0.052109085 0.06660211 -0.0038599991 -0.032667026
0.06293747 0.060324572 0.077859424 -0.06425324 -0.083182074 0.05298571 0.043190014 0.064029686
-0.041962374 0.047313057 8.932913e-05 0.06734097 -0.11754106 0.007995381 0.069481574 -0.010567819
0.09121155 0.033134565 0.070959665 -0.055538755 0.013507634 -0.0038984905 -0.045090806 0.042945355
0.0689324 -0.08154823 -0.029845146 -0.07264353 -0.08031467 -0.026934052 0.07439818 0.06611511
0.0013301149 -0.010408558 -0.039078653 0.009602896 0.02117156 0.0249578 -0.07880136 0.010258593
-0.009231255 0.06476385 -0.057768233 -0.012097751 -0.11404171 0.007079057 0.00980658 -0.061011687
-0.00082097494 0.031790264 -0.0071686166 0.024880446 -0.06705931 0.015503104 0.06733077 -0.061933737
-0.048470624 0.08756837 0.070527576 0.07662636 -0.052970793 0.07470915 0.04629275 -0.0039273114
0.01870526 0.05170346 -0.027698353 -0.04244079 0.05345349 -0.09250098 -0.05369525 0.035963483
00000000: f8b8 07bd 08bb 403d ced1 16bd e3f5 a33c
00000010: e510 a3bd f75f 243d 3475 41bd 4955 303d
00000020: 07ac ee3d acf4 483d bfaf 9d3d 36e2 99bd
00000030: 78a2 863c 4105 72bd 8de6 b73d 0baf 42bd
00000040: 7d10 3abd 5a41 3cbd e556 adbd 3487 f2bd
00000050: ee51 923c 4dba 60bd 9a12 2d3c 3b64 cfbb
00000060: 13d6 63bd 86ec ad3d 356f 9cbc 9d35 81bb
00000070: 0ee7 8ebd 8d93 b53d 8df8 403d 519e 91bd
00000080: 6b9e 3f3d 5da2 2d3d 1993 ee3c ceb9 3a3c
00000090: 50c9 dfbd 6dbf 2ebd 1874 80bd e154 ba3d
000000a0: 52fc 8bbd b002 813d c832 db3c f75d 203c
000000b0: b5b6 15bc 7584 91bb 2d9a 6f3d b385 10bc
000000c0: a042 973c 2966 6a3d 0f6f 49bc 863e 93bd
000000d0: 1a08 67bd 76dd 80bd b630 1e3c 4d4f 233d
000000e0: 154b c9bb 5726 ec3d 9ed5 623d fbea 9b3d
000000f0: 2b6d 053d 1588 683c 9479 b43d d096 3f3d
00000100: d594 41bd 9b25 b5bc 3037 cfbd e473 bebb
00000110: 4207 353d ca51 b33d 853b 393d 6deb 093d
00000120: d95c 863c 6997 5bbd 30c9 afbd 5b5e c83a
00000130: c9a3 68bd b723 913d 1619 eb3c 3003 73bd
00000140: 48f3 a73d 7da6 03be f105 21bd 7a89 b73d
00000150: b5ba 81bd d2be 7e3d 12b7 18bd f8f1 033d
00000160: 5865 a33d 4c54 cf3c c631 88bd ca11 8abd
00000170: 4d14 06bd cd3a 893c 0ac5 84bd eb4e a03c
00000180: 6d81 54bc 183c c73d 73e8 513d c19b 37bc
00000190: e401 c63d d79d ce3b 3ccc a4bc 9cf2 af3c
000001a0: e6ac 663d ddee b23d 458a 8b3d 8573 6e3b
000001b0: 002c ca3c b8d2 b6bc 69ec 9b3d 203a 573d
000001c0: bd55 75bd 8b9e 253d 2a30 f5bd c97c 563d
000001d0: 64c4 8a3d f7e1 633d 2d56 183d eb06 a33a
000001e0: aa19 41bd caa1 5f3d 7b63 3f3d 3aa8 8dbd
000001f0: dd07 a8bd fcd6 c5bd 73d5 10bd c98d 3cbd
00000200: 1585 d43b a83c 3cbd 3856 8fbd 2b5d 33bd
00000210: adf0 d43c 76fc a23c c04f a8bc b12a e0bc
00000220: 944f b2bd 4676 063c 2992 5b3d 7c09 463b
00000230: 8d3d 533d 56be 4fbd ec20 dd3b 48cd 8539
00000240: c8d5 c2bb fea8 31bd ecbb 70bd 0471 9ebd
00000250: 839c ebbb c542 a8bb 9815 183d 5556 9cbd
00000260: 483c b13c aa0a 5c3c b9a3 d63c 5c9b a53c
00000270: 7af9 0abd ea8a 5ebd 6434 dc3b be1b 63bd
00000280: e907 26bd 26a4 173a 0dca 50bd 7af3 e0bc
00000290: 842f dabd a23b 0bbd 027b 443d 060d 773d
000002a0: b199 943d 068a 3c3d d3f3 a03d 0d9c bcbd
000002b0: 2513 963c 1a2c b83d b542 2dbd 8a5a 73bd
000002c0: 548e 66bd fea5 ac3c 124a 723d a576 683d
000002d0: 5670 55bd b066 883d 0af8 7cbb dccd 05bd
000002e0: 5ce5 803d e616 773d c374 9f3d 3497 83bd
000002f0: 5d5b aabd 8b07 593d 03e8 303d ff21 833d
00000300: bde0 2bbd 56cb 413d 3656 bb38 10ea 893d
00000310: 5eb9 f0bd 0fff 023c 5b4c 8e3d a524 2dbc
00000320: 1fcd ba3d 1cb8 073d 4d53 913d 9b7c 63bd
00000330: 204f 5d3c d17d 7fbb 23b1 38bd 78e7 2f3d
00000340: 6e2c 8d3d c202 a7bd cf7d f4bc 22c6 94bd
00000350: 057c a4bd cda4 dcbc 135e 983d 5c67 873d
00000360: 4057 ae3a a888 2abc f010 20bd 7755 1d3c
00000370: fb6f ad3c 4d74 cc3c 9c62 a1bd a813 283c
00000380: b13e 17bc e9a2 843d 629e 6cbd a535 46bc
00000390: b38e e9bd 6ff7 e73b c7ab 203c 64e7 79bd
000003a0: b236 57ba 8236 023d b7e6 eabb 14d2 cb3c
000003b0: 6456 89bd bb00 7e3c b7e4 893d 3bae 7dbd
000003c0: 2289 46bd 0c57 b33d c370 903d 48ee 9c3d
000003d0: e7f7 58bd 1c01 993d 779d 3d3d adb0 80bb
000003e0: c63b 993c 02c7 533d a8e7 e2bc 65d6 2dbd
000003f0: 0cf2 5a3d 2771 bdbd 8def 5bbd 724e 133d

lstm.bias_ih_l0 f4 [512]
0.010256877 -0.024430726 -0.03378509 0.009533593 -0.01521339 0.041750826 -0.06589533 -0.035928328
-0.05838364 -0.007900782 -0.0025796746 0.021458289 0.0015128921 0.08508232 -0.0769236 -0.011867042
-0.055530507 0.058135085 0.005212971 -0.029355044 -0.026376685 -0.0816257 -0.007893904 0.05354713
-0.06429865 -0.002407076 -0.054376144 -0.01759875 0.05413304 -0.049407326 0.016662544 -0.008777467
-0.03604509 -0.04377232 0.075658716 -0.050400227 0.039287876 0.08154168 -0.02451621 0.032401573
0.02629414 0.021770604 0.016410695 0.046574812 -0.059659366 0.03334639 -0.068594426 -0.0627649
-0.06001447 -0.026029684 -0.03312459 -0.04873932 -0.009343345 -0.08427681 0.073309295 -0.015234564
-0.013030291 -0.02667772 0.034820374 0.096557036 0.0056423564 -0.047891557 -0.0788501 0.076376416
0.12300348 0.07268807 -0.06311119 -0.08050353 0.018467275 0.0046086754 0.09259188 0.073998936
0.018727617 0.067520425 -0.067389324 0.10448183 0.06375667 -0.0041548526 -0.02769721 0.08876561
0.06482396 0.06669923 0.028506331 0.008121026 0.00172533 0.05826777 -0.083836004 -0.049474645
0.07408164 0.066742994 -0.03414369 0.038478747 0.07142228 -0.0036228138 -0.0018719378 0.03687969
-0.012236193 -0.06253916 -0.06782311 0.09331827 0.023300616 0.002563782 0.01910569 -0.0563718
-0.049766656 0.023620272 0.008798564 0.0029807573 0.11758242 0.015554992 0.10351556 0.031564236
0.06712205 -0.037428204 -0.041431066 -0.048240837 0.01824361 0.11526579 0.008718842 -0.0060133
-0.016826129 0.12297819 -0.06229924 -0.08215068 -0.056079056 0.011905184 -0.07811478 0.03705592
-0.021370336 0.034145642 0.01413495 0.0767456 0.06950536 0.025440356 0.035561077 0.049431663
-0.014523771 0.061227504 0.10275597 0.018535445 0.01503028 -0.018019203 0.076638505 -0.08261134
0.10538051 0.082045496 -0.022763988 -0.029197332 0.06681108 0.004237931 -0.042390823 0.08780898
-0.0678037 0.0023894922 0.04108523 0.050925907 0.08478107 -0.00031119946 -0.039119042 0.07159039
0.065019116 0.042382784 0.034028422 0.037861936 0.09445302 0.0013534866 0.050998807 0.06541501
0.10122798 0.028160913 -0.020394115 0.0842135 0.08560736 0.058105826 -0.056166172 0.09547498
0.0069869086 0.084563605 0.06368846 0.006422268 -0.0105804335 0.052449565 0.022301918 0.08867627
-0.023026971 -0.040358335 -0.053645782 -0.030285927 0.06951266 0.06702744 0.082940996 0.066310175
-0.0616054 0.05272785 -0.004652088 0.012425247 -0.025921479 0.10504606 -0.06586033 -0.053235706
-0.0990843 -0.07363986 0.02941084 0.039790202 0.015849875 0.12245525 -0.022112766 -0.027028842
0.086630695 0.014866174 0.02891717 -0.031433444 -0.062225793 -0.056186978 -0.030544344 0.057421114
-0.04664863 0.011255105 0.034421183 -0.053559516 -0.068973765 0.037394963 -0.055345695 0.094218984
-0.02239758 0.064064294 0.06637382 -0.011022845 0.096346125 0.04206201 -0.025333289 0.018549917
0.09160305 0.04546942 0.07990559 -0.029598288 -0.0003115799 0.06990378 0.050316475 0.04341274
0.10597767 0.050841983 -0.013919052 0.042945266 -0.06942148 0.026331838 -0.046103235 0.011333821
-0.038287006 0.08155386 -0.02354442 0.022276783 0.035004605 0.006404774 0.0032954137 -0.050781842
00000000: 760c 283c f222 c8bc 3c62 0abd ca32 1c3c
00000010: 9541 79bc ea02 2b3d 21f4 86bd 9529 13bd
00000020: af23 6fbd 4872 01bc c20f 29bb 4bc9 af3c
00000030: 3c4c c63a a43f ae3d 1f8a 9dbd fb6d 42bc
00000040: f573 63bd 0e1f 6e3d 92d1 aa3b fd79 f0bc
00000050: eb13 d8bc 602b a7bd 6f55 01bc 3c54 5b3d
00000060: 03af 83bd 09c0 1dbb 85b9 5ebd 412b 90bc
00000070: 9bba 5d3d 565f 4abd e37f 883c 5dcf 0fbc
00000080: 04a4 13bd 9b4a 33bd f5f2 9a3d 7870 4ebd
00000090: 53ec 203d 53ff a63d 38d6 c8bc 83b7 043d
000000a0: cf66 d73c 4458 b23c b96f 863c 3bc5 3e3d
000000b0: 615d 74bd 3996 083d 3c7b 8cbd e28a 80bd
000000c0: bcd1 75bd 343c d5bc a6ad 07bd e2a2 47bd
000000d0: d414 19bc 5299 acbd 2f23 963d 659a 79bc
000000e0: 007d 55bc 3c8b dabc cf9f 0e3d b2bf c53d
000000f0: 84e3 b83b f029 44bd 297c a1bd 3d6b 9c3d
00000100: 40e9 fb3d 7cdd 943d 7140 81bd 09df a4bd
00000110: af48 973c 5f04 973b d0a0 bd3d c18c 973d
00000120: a96a 993c 2648 8a3d 6a03 8abd 92fa d53d
00000130: db92 823d 6e25 88bb 42e5 e2bc beca b53d
00000140: 6dc2 843d 9b99 883d 1c86 e93c 0d0e 053c
00000150: 7824 e23a 2faa 6e3d 36b2 abbd eda5 4abd
00000160: 1db8 973d 8db0 883d 41da 0bbd e49b 1d3d
00000170: d845 923d bb6c 6dbb cf5b f5ba 280f 173d
00000180: 507a 48bc 8814 80bd d8e6 8abd a61d bf3d
00000190: efe0 be3c 2005 283b 8983 9c3c 1ee6 66bd
000001a0: 1fd8 4bbd 4d7f c13c da27 103c cf58 433b
000001b0: 0dcf f03d 5dda 7e3c f7ff d33d 8049 013d
000001c0: 4977 893d 514e 19bd 9fb3 29bd 2f98 45bd
000001d0: a073 953c 7810 ec3d 79d9 0e3c 370b c5bb
000001e0: f3d6 89bc fddb fb3d 7d2d 7fbd 9e3e a8bd
000001f0: 27b3 65bd f60d 433c a4fa 9fbd f3c7 173d
00000200: d810 afbc 4ddc 0b3d 4796 673c cc2c 9d3d
00000210: d458 8e3d 4b68 d03c 7ea8 113d db78 4a3d
00000220: 1cf5 6dbc b1c9 7a3d b971 d23d a5d7 973c
00000230: 9041 763c 029d 93bc a6f4 9c3d 2230 a9bd
00000240: bdd1 d73d 7807 a83d 8b7b babc 3e2f efbc
00000250: 3fd4 883d 58de 8a3b 00a2 2dbd 32d5 b33d
00000260: abdc 8abd 0799 1c3b fc48 283d af97 503d
00000270: b3a1 ad3d 7c28 a3b9 4a3b 20bd fb9d 923d
00000280: be28 853d 9299 2d3d 6361 0b3d 1e15 1b3d
00000290: 9670 c13d 7967 b13a 20e4 503d 4ef8 853d
000002a0: 9d50 cf3d b7b1 e63c 8f11 a7bc 2178 ac3d
000002b0: e952 af3d 6000 6e3d 800e 66bd 6388 c33d
000002c0: 70f2 e43b af2f ad3d 186f 823d e471 d23b
000002d0: 8e59 2dbc 5bd5 563d 83b2 b63c e79b b53d
000002e0: 0fa3 bcbc c84e 25bd aebb 5bbd 311a f8bc
000002f0: a75c 8e3d af45 893d f8dc a93d a1cd 873d
00000300: f255 7cbd 28f9 573d 8b70 98bb 4393 4b3c
00000310: 4859 d4bc 6422 d73d c8e1 86bd af0d 5abd
00000320: b6ec cabd 7fd0 96bd 00ef f03c 0dfb 223d
00000330: 99d7 813c d1c9 fa3d d525 b5bc 976b ddbc
00000340: 6f6b b13d 4191 733c b3e3 ec3c 5bc0 00bd
00000350: 79e0 7ebd 5124 66bd 2238 fabc 6732 6b3d
00000360: a212 3fbd 5567 383c 3afd 0c3d 3961 5bbd
00000370: 1e42 8dbd 762b 193d 2bb2 62bd e2f5 c03d
00000380: 217b b7bc 2434 833d ffee 873d 2a99 34bc
00000390: 1e51 c53d 3749 2c3d c287 cfbc fff5 973c
000003a0: 619a bb3d 243e 3a3d 8ba5 a33d 1c78 f2bc
000003b0: 8c5b a3b9 b729 8f3d a618 4e3d 8fd1 313d
000003c0: d20a d93d af3f 503d bc0c 64bc 60e7 2f3d
000003d0: d92c 8ebd deb5 d73c bfd6 3cbd 7eb1 393c
000003e0: d6d2 1cbd b605 a73d 3ae0 c0bc cd7d b63c
000003f0: fd60 0f3d 23df d13b def7 573b 9f00 50bd

lstm.bias_hh_l0 f4 [512]
-0.023997013 0.04409252 -0.035069242 0.03556531 0.009559065 0.0017718965 0.056524586 -0.052119352
-0.0044014286 0.05488795 0.044011805 0.084971406 -0.014924662 -0.017805487 0.0020570892 0.013200339
-0.0030294089 0.02788243 -0.025306242 -0.026922636 0.037555378 0.0060700127 -0.0083701 0.03281959
0.020127598 0.06396793 -0.010648879 -0.053276874 0.030212462 0.061193388 -0.059210043 -0.033220127
0.05679348 -0.02883002 0.07232655 0.03144823 -0.05043421 0.038155705 0.083593 0.05945908
-0.0945063 -0.08397737 -0.07782037 0.048355367 -0.054005962 -0.03728645 -0.0719863 -0.07853957
0.07122477 -0.04224983 -0.04516597 -0.008482671 -0.08224964 0.017288068 0.043596838 0.050445307
0.06092136 -0.06412851 -0.058705572 -0.072358295 -0.035112385 0.012352404 -0.02253017 0.0008501643
0.066674426 0.024779696 -0.034328632 0.052970357 0.00891395 -0.055377644 0.07041747 0.03695566
0.053256806 -0.010152046 0.04543806 -0.01995901 0.044024073 0.13033934 -0.06597506 -0.052360106
-0.056425255 -0.00012711069 -0.02366878 -0.040911306 -0.054367725 -0.005006076 0.03137064 0.026406307
-0.08682581 0.021611424 -0.014853188 0.030963609 -0.048961528 0.034906182 -0.0456004 0.05913321
-0.021630734 -0.036811512 0.04593559 0.08665919 0.09143801 -0.089975 0.07680963 -0.073837034
-0.07161356 0.09976374 0.059901893 0.114399895 0.03807412 0.046742074 -0.06432677 0.00932299
-0.059651304 0.016083663 -0.019392364 -0.048240405 0.0677915 0.14159538 -0.060389437 -0.061467417
0.080455616 -0.023671452 -0.0005785675 -0.0047890777 0.073370434 -0.04463801 -0.03755382 0.044587594
0.050535597 0.05311205 -0.061297085 -0.017612223 -0.024309384 -0.01399027 -0.01968589 -0.009795158
0.059178222 0.08407346 -0.0294322 0.10852367 0.071870886 0.10359282 0.03647516 -0.082169876
-0.017042998 -0.054938238 0.0458397 0.016432758 0.09550616 0.046093147 -0.0014918367 0.103858754
0.035295475 0.09338734 0.08105616 -0.06347862 -0.028621431 -0.003785961 -0.045626663 -0.012660524
-0.053027462 -0.04226967 0.0497593 -0.045945514 -0.048617907 -0.032601863 -0.014332945 0.06875222
-0.058427826 0.05253192 0.014485633 -0.048002552 -0.042721502 -0.0074692597 0.012432665 0.035081804
0.10346016 -0.029096978 0.11057453 0.0053746877 0.01940819 0.06879381 0.10632379 0.0907113
-0.024488026 0.020316746 0.08163516 -0.012122756 0.020345407 -0.012673423 -0.05793484 0.082067624
0.09226995 0.06297177 0.060623538 -0.0780741 0.015522552 0.09360169 -0.07333421 0.093830936
-0.07301082 0.03292614 0.012594801 -0.015254895 0.06864859 0.023420846 -0.039570607 -0.051182717
-0.085455246 0.045066826 0.040722746 0.06963734 0.047127485 0.04872701 0.093833596 -0.01991565
0.1026564 -0.017558295 -0.02633137 -0.020812863 -0.039855003 0.03789535 -0.058825757 0.07670534
0.008109498 0.0021394927 -0.036757544 0.059984893 0.103035346 -0.07682167 0.0653713 0.00158361
0.028997809 0.0011673737 -0.04834417 0.10914615 -0.0057322863 -0.072636224 0.049740322 0.042742223
0.086771786 0.018731073 -0.04675772 0.03780656 -0.07732198 0.15275317 0.042791028 0.059801135
-0.008708598 -0.0065674405 0.06341935 -0.05606022 0.060613748 -0.0003509639 -0.0017737377 0.0010973768
00000000: 6295 c4bc 5c9a 343d c4a4 0fbd eeac 113d
00000010: a09d 1c3c fb3e e83a 5386 673d 1a7b 55bd
00000020: dc39 90bb 30d2 603d b945 343d 7d05 ae3d
00000030: 9286 74bc d0dc 91bc 3bd0 063b 3c46 583c
00000040: 0c89 46bb b269 e43c 094f cfbc dc8c dcbc
00000050: abd3 193d f5e6 c63b be22 09bc d66d 063d
00000060: a2e2 a43c 9e01 833d a378 2ebc da38 5abd
00000070: 2080 f73c eba5 7a3d 3b86 72bd d411 08bd
00000080: 48a0 683d ef2c ecbc f11f 943d dccf 003d
00000090: 1a94 4ebd 2849 1c3d cf32 ab3d 5d8b 733d
000000a0: 858c c1bd 54fc abbd 4960 9fbd 4710 463d
000000b0: 5b35 5dbd adb9 18bd 8e6d 93bd 5bd9 a0bd
000000c0: 4bde 913d 280e 2dbd f4ff 38bd e7fa 0abc
000000d0: 8072 a8bd b59f 8d3c 9992 323d bd9f 4e3d
000000e0: ad88 793d cf55 83bd 4175 70bd 9630 94bd
000000f0: 01d2 0fbd bd61 4a3c 3191 b8bc 8fdd 5e3a
00000100: 9a8c 883d cafe ca3c 2e9c 0cbd 72f7 583d
00000110: d10b 123c abd3 62bd 0937 903d d15e 173d
00000120: cf23 5a3d c454 26bc 421d 3a3d 1481 a3bc
00000130: 9652 343d ad77 053e ef1d 87bd 8d77 56bd
00000140: 2b1e 67bd 0449 05b9 08e5 c1bc 9d92 27bd
00000150: b1b0 5ebd 020a a4bb 807e 003d 0a52 d83c
00000160: bbd1 b1bd 710a b13c c95a 73bc 65a7 fd3c
00000170: e28b 48bd c9f9 0e3d 7cc7 3abd aa35 723d
00000180: f032 b1bc abc7 16bd f526 3c3d 607a b13d
00000190: da43 bb3d d044 b8bd 5e4e 9d3d df37 97bd
000001a0: 21aa 92bd ef50 cc3d b05b 753d 7e4a ea3d
000001b0: 9cf3 1b3d 9e74 3f3d c1bd 83bd 74bf 183c
000001c0: ed54 74bd e3c1 833c bcdc 9ebc bb97 45bd
000001d0: 45d6 8a3d 61fe 103e ea5a 77bd 42c5 7bbd
000001e0: eac5 a43d a2ea c1bc 02ab 17ba b2ed 9cbb
000001f0: 3d43 963d 59d6 36bd 09d2 19bd 7ba1 363d
00000200: 6afe 4e3d 058c 593d a712 7bbd 8247 90bc
00000210: 7924 c7bc 7237 65bc 4e44 a1bc df7b 20bc
00000220: dd64 723d b52e ac3d cc1b f1bc a841 de3d
00000230: 0b31 933d 7928 d43d fa66 153d ae48 a8bd
00000240: c29d 8bbc eb06 61bd 69c2 3b3d fe9d 863c
00000250: bc98 c33d 2bcc 3c3d bc89 c3ba e6b3 d43d
00000260: fd91 103d dd41 bf3d c600 a63d 1401 82bd
00000270: 7e77 eabc e31d 78bb 06e3 3abd 166e 4fbc
00000280: 5333 59bd f622 2dbd 68d0 4b3d 5d31 3cbd
00000290: 9223 47bd 8889 05bd bbd4 6abc f7cd 8c3d
000002a0: 0452 6fbd b62b 573d 2655 6d3c 539e 44bd
000002b0: befc 2ebd b1c0 f4bb 60b2 4b3c f0b1 0f3d
000002c0: ece2 d33d c95c eebc e674 e23d 261e b03b
000002d0: edfd 9e3c c5e3 8c3d 4ac0 d93d d9c6 b93d
000002e0: 1d9b c8bc 4e6f a63c 5630 a73d 869e 46bc
000002f0: 69ab a63c 30a4 4fbc 154d 6dbd 1213 a83d
00000300: 07f8 bc3d 58f7 803d 6350 783d 50e5 9fbd
00000310: 4d52 7e3c 3eb2 bf3d 3f30 96bd 6f2a c03d
00000320: b286 95bd 8fdd 063d 6d5a 4e3c abef 79bc
00000330: a297 8c3d 13dd bf3c ca14 22bd f8a4 51bd
00000340: 2903 afbd fe97 383d e5cc 263d 069e 8e3d
00000350: c008 413d f995 473d d42b c03d 2526 a3bc
00000360: 853d d23d 6ad6 8fbc e3b4 d7bc bd7f aabc
00000370: 003f 23bd 2838 1b3d 47f3 70bd b017 9d3d
00000380: b3dd 043c bb36 0c3b 148f 16bd b8b2 753d
00000390: 3204 d33d ae54 9dbd 63e1 853d 2291 cf3a
000003a0: d08c ed3c 9002 993a 8904 46bd 0488 df3d
000003b0: e7d5 bbbb 4dc2 94bd 82bc 4b3d 7812 2f3d
000003c0: 68b5 b13d e871 993c 0685 3fbd 0ddb 1a3d
000003d0: fc5a 9ebd 546b 1c3e a545 2f3d 09f2 743d
000003e0: 82ae 0ebc af33 d7bb 01e2 813d 679f 65bd
000003f0: 1f46 783d 9401 b8b9 c37c e8ba dbd5 8f3a

fc.weight f4 [2, 128]
0.08626936 0.06518802 0.09861994 -0.024216762 -0.09847335 -0.041133296 -0.121496625 0.022332976
-0.09836436 -0.04745434 0.08290871 0.100846164 -0.14423697 0.07058794 -0.076201685 -0.02410684
-0.036307327 -0.12711354 0.033447172 -0.11726492 -0.0005523071 -0.019406803 0.031964306 -0.074277565
-0.093197115 0.030632459 -0.10923839 0.031408835 -0.118535526 -0.1306799 0.0034908154 0.079361774
-0.15581128 0.12278766 0.13997994 -0.10763379 -0.08852104 0.1055125 -0.09216816 0.10255667
0.0023367398 -0.013663499 -0.13303314 -0.10350844 0.16660501 0.10541036 0.08506167 0.02056892
-0.028207395 -0.06191881 0.09266833 -0.013710785 -0.12637347 0.051211257 0.055112068 0.07054091
0.018734576 -0.07060512 0.054621402 -0.10005298 0.036223117 -0.1157371 -0.06876143 -0.10606715
-0.13232487 -0.12762012 -0.022553941 0.0002484281 -0.08423914 0.14654212 -0.1765622 -0.12748367
-0.09185158 0.120855406 0.01154 -0.10616509 0.05179937 -0.1200974 -0.11919924 0.012688565
0.119619936 -0.0074259946 -0.12406872 -0.12660639 0.14210513 -0.07003994 -0.003990869 0.011504197
-0.05597847 -0.0040005464 -0.07020151 -0.052276406 -0.038468532 -0.19630437 0.05438084 -0.06595681
-0.020788966 -0.030639281 0.050242983 -0.14145894 0.027512087 0.0023824607 0.095841184 -0.102303624
0.10739066 -0.07220798 -0.14352413 0.074172206 0.12365712 0.11405057 -0.08392144 0.10736642
0.040095653 -0.0026039286 0.0491016 -0.13263845 -0.10019679 0.0967921 0.11631884 -0.10913041
0.06945188 0.21237032 0.09316781 0.03805039 0.09854569 0.06909268 0.059136424 -0.0682954
0.0326072 0.07094502 -0.028791448 -0.061126467 0.06500582 0.03572764 0.13469376 0.07130575
-0.0013711182 -0.052737955 0.045639794 -0.05540627 0.13516963 -0.09395707 0.068197496 0.062152218
0.016129406 0.0066928277 -0.07891646 0.009388214 0.07993748 0.13431606 -0.020212552 0.020630125
0.028734205 -0.16020262 0.13084656 -0.021738246 0.086636625 0.11971092 0.013642747 0.056389198
0.15798534 -0.12540196 -0.098197624 0.07032381 0.17560147 -0.12265026 0.16199112 -0.16763711
-0.06977755 0.13002819 0.049691837 0.16533068 -0.055073127 0.021505378 -0.17933176 0.06557863
0.1315821 0.023498438 -0.10891035 -0.026422715 0.107448384 -0.057555962 -0.037678547 -0.0088237375
-0.031377893 -0.008048052 -0.056705076 0.026267286 -0.075213656 0.0032920935 0.06640998 0.10558017
0.2116759 0.06433932 0.087574504 -0.036679816 0.07132032 -0.11240053 0.1670414 0.046279185
0.05334635 -0.08270106 0.1437791 0.10254637 0.0135202035 0.12899928 0.13619336 -0.12293373
-0.09668462 -0.04611725 0.04707053 0.08033131 -0.1332287 0.022443837 0.06964447 -0.053416476
0.061773334 0.06755432 0.04715704 0.09089037 0.04836364 0.18908855 -0.04099146 -0.07265929
0.10038619 -0.067529425 -0.041624535 0.08377854 0.019614695 0.07314103 0.03419942 0.15512422
-0.018722598 0.12846154 0.014279204 0.045796465 -0.053783588 -0.11757394 0.06969802 -0.006293362
-0.08319386 -0.09678482 -0.06476488 0.1982198 -0.014037475 -0.1545441 -0.119642004 0.049425732
-0.10468629 -0.20102747 -0.047185525 -0.004002923 -0.05539504 -0.14702001 -0.065453224 -0.045015126
00000000: fdad b03d 4c81 853d 40f9 c93d 3b62 c6bc
00000010: 65ac c9bd 637b 28bd 39d3 f8bd a5f3 b63c
00000020: 4173 c9bd 7b5f 42bd 0bcc a93d 6f88 ce3d
00000030: dbb2 13be 6990 903d a10f 9cbd b57b c5bc
00000040: feb6 14bd 0d2a 02be e7ff 083d 9728 f0bd
00000050: b4c8 10ba 04fb 9ebc 01ed 023d d61e 98bd
00000060: 21de bebd ecf0 fa3c 61b8 dfbd 8da6 003d
00000070: c1c2 f2bd f4d0 05be 2ac6 643b 6d88 a23d
00000080: fe8c 1fbe 1978 fb3d e756 0f3e 1b6f dcbd
00000090: 854a b5bd f016 d83d a9c2 bcbd 3b09 d23d
000000a0: fd23 193b dedc 5fbc d739 08be 3cfc d3bd
000000b0: 819a 2a3e 63e1 d73d d034 ae3d 2780 a83c
000000c0: 3213 e7bc 949e 7dbd e5c8 bd3d 33a3 60bc
000000d0: 0c68 01be e5c2 513d 31bd 613d c177 903d
000000e0: 4179 993c 6b99 90bd b1ba 5f3d 94e8 ccbd
000000f0: b15e 143d 9307 edbd cbd2 8cbd bc39 d9bd
00000100: 2c80 07be d9ae 02be 0bc3 b8bc 753f 8239
00000110: 9285 acbd 230f 163e b9cc 34be 148b 02be
00000120: ae1c bcbd 0a83 f73d 4512 3d3c 156d d9bd
00000130: 942b 543d a0f5 f5bd bb1e f4bd b3e3 4f3c
00000140: 4cfb f43d c255 f3bb be17 febd 1ba5 01be
00000150: 0284 113e 1a71 8fbd d6c5 82bb 197c 3c3c
00000160: ae49 65bd 0417 83bb cfc5 8fbd c91f 56bd
00000170: 2e91 1dbd 0304 49be 72be 5e3d 5d14 87bd
00000180: 9f4d aabc 3bff fabc 96cb 4d3d 9dda 10be
00000190: 0761 e13c 0f23 1c3b 6248 c43d 9084 d1bd
000001a0: a2ef db3d c7e1 93bd fdf7 12be 99e7 973d
000001b0: f23f fd3d 5893 e93d 01df abbd ede2 db3d
000001c0: 573b 243d aca6 2abb c21e 493d 60d2 07be
000001d0: fa33 cdbd f03a c63d 9238 ee3d c47f dfbd
000001e0: ca3c 8e3d 9b77 593e c4ce be3d bada 1b3d
000001f0: 53d2 c93d 7780 8d3d 0939 723d 75de 8bbd
00000200: 218f 053d 9f4b 913d 0bdc ebbc bf5f 7abd
00000210: c521 853d 2557 123d 29ed 093e c008 923d
00000220: 18b7 b3ba c103 58bd cbf0 3a3d aff1 62bd
00000230: e869 0a3e 906c c0bd 21ab 8b3d 5393 7e3d
00000240: d121 843c 824f db3b f49e a1bd 06d1 193c
00000250: 43b6 a33d 268a 093e cb94 a5bc 8200 a93c
00000260: ff63 eb3c 280c 24be a4fc 053e 6814 b2bc
00000270: 8b6e b13d 002b f53d d485 5f3c 5cf8 663d
00000280: e9c6 213e 5f69 00be d61b c9bd ee05 903d
00000290: dfd0 333e 0f30 fbbd 00e1 253e 10a9 2bbe
000002a0: 88e7 8ebd 1c26 053e ab89 4b3d 724c 293e
000002b0: 5c94 61bd 0c2c b03c bfa2 37be 174e 863d
000002c0: 75bd 063e cc7f c03c 640c dfbd 7374 d8bc
000002d0: e60d dc3d cdbf 6bbd d254 1abd 7091 10bc
000002e0: 1b86 00bd fadb 03bc 9543 68bd 7e2e d73c
000002f0: 9e09 9abd 2ac0 573b f501 883d 6b3a d83d
00000300: 91c1 583e 55c4 833d 435a b33d 933d 16bd
00000310: 6310 923d 4032 e6bd e70c 2b3e 3e8f 3d3d
00000320: b481 5a3d 2c5f a9bd d43a 133e d503 d23d
00000330: d883 5d3c 6318 043e 4676 0b3e aec4 fbbd
00000340: 9602 c6bd 71e5 3cbd 07cd 403d be84 a43d
00000350: 1b6d 08be 23dc b73c c3a1 8e3d 3ccb 5abd
00000360: 0906 7d3d eb59 8a3d be27 413d bb24 ba3d
00000370: f418 463d 6ea0 413e a9e6 27bd 65ce 94bd
00000380: 4697 cd3d de4c 8abd 7d7e 2abd 1594 ab3d
00000390: ffae a03c f7ca 953d b114 0c3d e2d8 1e3e
000003a0: 2260 99bc 6c8b 033e 53f3 693c 1395 3b3d
000003b0: 2e4c 5cbd 9bca f0bd d6bd 8e3d 8c38 cebb
000003c0: 8b61 aabd 1f37 c6bd 73a3 84bd 22fa 4a3e
000003d0: 70fd 65bc cf40 1ebe de06 f5bd a372 4a3d
000003e0: c465 d6bd 25da 4dbe 9c45 41bd f42a 83bb
000003f0: e9e5 62bd 6a8c 16be 570c 86bd c861 38bd

fc.bias f4 [2]
-0.03536027 0.07987502
00000000: eed5 10bd 8495 a33d
