runs/lstm/best.pt (torch, 444145 bytes, 6 tensors)

lstm.weight_ih_l0 f4 [512, 85]
000000 f5 2e 8f bd 61 8b df bc d0 ba d9 bc 00 2e 41 bc
       -0.06991378 -0.02728814 -0.026578337 -0.011790752
000010 97 1a 76 bd f8 fc 84 3c 6e 04 13 bd d8 25 0f bd
       -0.06008395 0.016233906 -0.035892896 -0.0349482
000020 2a c5 84 bd db 1b 71 bd 4d b6 42 3c 97 fa fc bc
       -0.064829186 -0.058864456 0.011884284 -0.03088121
000030 ce a0 0e 3c 1b 9b 6b bd c3 1a 89 bd 45 c8 ea bc
       0.008705331 -0.057520967 -0.066945575 -0.02865995
000040 6f 3d 2e 3c 43 72 68 bd 8b 3f 67 bd eb 5e 89 bd
       0.010634764 -0.056749593 -0.056457084 -0.06707557
000050 3a 93 b1 bc af 2b a6 3c c4 81 8f 3d 35 14 2b bd
       -0.021676648 0.020284502 0.07007173 -0.041767318
000060 9f b7 5f bd fb 8e 6f 3d 5e 3c 88 3a 16 b3 4c bd
       -0.054618474 0.058485966 0.0010393967 -0.049975477
000070 50 3b a9 3d 0a c7 02 3c 21 35 d6 bc 6a 5e 6c bd
       0.08263266 0.007982025 -0.02614838 -0.057707228
000080 23 e9 99 bd 3c 2d 2f bd b0 5f 22 3c 06 c7 57 3c
       -0.075151704 -0.04276775 0.009910509 0.0131700095
000090 02 6d c0 3d 41 e4 3a 3d 6c 03 a1 3c 5d 09 73 3c
       0.093957916 0.045627836 0.019654952 0.014833775
0000a0 65 c9 a9 3d b3 6d 32 3d 8e df 8e 3d 6f 58 8b 3d
       0.08290366 0.04356165 0.069762334 0.06803977
0000b0 0d f4 ab 3b 5c f6 dc bc bb 6e 0d bd 1c 84 39 bd
       0.005247599 -0.026972942 -0.03452943 -0.045292005
0000c0 f8 49 09 bd f5 9b 16 bd 09 c8 7c 3d aa 20 53 bd
       -0.033517808 -0.036769826 0.061714206 -0.051544823
0000d0 d7 e4 80 bc 65 ba 31 3d c6 f0 58 bd a5 33 09 bc
       -0.01573412 0.04339065 -0.052963994 -0.008374129
0000e0 c2 c5 9c bd 00 67 87 3d 1e a5 66 bd 6b f1 da bc
       -0.07654907 0.066114426 -0.05630981 -0.026726445
0000f0 2e 59 93 3d d5 73 26 3d 5d eb 93 3d 1b be eb bc
       0.07194744 0.04063781 0.07222626 -0.028777173
000100 c5 19 a8 bd b6 e2 6c bb 6d 2b 83 3d 94 dd 87 bd
       -0.0820804 -0.0036145872 0.06404767 -0.066340595
000110 b2 68 30 bd 8a c4 81 bd 2f 7a 71 bd 17 88 33 3d
       -0.043068595 -0.06336315 -0.058954414 0.043830957
000120 c5 7e b0 3c 53 0a 4b 3d e4 43 8f 3d 0d 8d 29 3d
       0.021544823 0.049570393 0.06995371 0.041394282
000130 7f 4d ce 3a 4c 9c 40 3d 2b 1c a3 bc 91 3b b7 3c
       0.0015739648 0.047024056 -0.019910892 0.02236727
000140 44 e4 93 3d 87 a1 a6 3d f0 e7 61 bd cb f4 3c bb
       0.072212726 0.08136278 -0.055152833 -0.0028832431
000150 03 cf 80 3c 41 4a 8c bd 6b ef 19 bd 63 2c 85 3d
       0.01572371 -0.068501 -0.037581842 0.06502607
000160 fc 17 58 bc 5e de 61 bc ed fe 7f bc a7 eb 7b 3d
       -0.013189312 -0.013785927 -0.015624744 0.061504032
000170 56 2b 0d 3d 54 c1 9e 3d c8 4e 23 bd 02 c3 db 3b
       0.034465156 0.07751718 -0.039870054 0.0067065964
000180 61 0e 36 3c 42 48 82 3b eb c3 8d 3d 93 38 7f 3a
       0.011111827 0.003975899 0.06922134 0.0009735908
000190 1b 46 08 3d e3 de 6c 3c 03 01 53 bd 57 56 00 bc
       0.033269983 0.014457437 -0.051514637 -0.007833085
0001a0 ba bb 5b bc 58 98 48 3c 83 59 0b 3d 3a ce 77 3d
       -0.013411457 0.012243353 0.034020912 0.060499407
0001b0 3d 7d 96 bd 1c 7b ad bd 18 5d 5c 3d 8e 80 96 3c
       -0.07348106 -0.08470747 0.05379972 0.018371847
0001c0 b2 8a 07 3d 99 2f 6c 3d 88 1a 48 bd 90 f0 88 3c
       0.033091255 0.05766258 -0.048853427 0.016716272
0001d0 87 7f 01 3d bf 3c 64 bc 17 45 b5 3d d8 20 ce 3c
       0.03161576 -0.013930499 0.088510685 0.025162145
0001e0 c7 c4 21 3d 07 d3 d3 3b 0b c0 86 3d 35 5f cc 3d
       0.039494302 0.0064643654 0.06579598 0.09979097
0001f0 45 8c 0a bd 94 db 02 3d b5 48 c4 3b 2b b7 b5 3d
       -0.033825178 0.031947687 0.0059901127 0.08872827
000200 9a 86 73 bc 65 65 8b bd a1 96 82 3c c9 d2 7e 3b
       -0.0148636345 -0.06806449 0.015940966 0.0038882962
000210 3a 93 9d bd 86 8e 35 bd 42 64 8c bd c2 ac a0 bc
       -0.07694097 -0.044325374 -0.0685506 -0.019613627
000220 dd 6e 62 bd e7 34 85 bc 95 25 29 3d 38 4e 90 3d
       -0.05528151 -0.016260577 0.041295607 0.07046169
000230 d2 81 0e bd 07 6a c7 3c 2a 40 43 bb 3f cf 4a 3d
       -0.034791775 0.02434255 -0.0029792883 0.04951405
000240 cf e7 db 3c ba 21 10 bd 35 3d 5c bd de ed 02 bd
       0.026843933 -0.035188414 -0.05376931 -0.03196513
000250 a8 f6 39 bd eb 07 1c 3d 26 e5 96 bc ae bd 2c bd
       -0.045401245 0.03809349 -0.018419813 -0.04217308
000260 2a 03 ee bc 3d 66 cb bc 96 4d 95 bd c7 80 90 bc
       -0.029054243 -0.024829024 -0.07290189 -0.01763953
000270 49 dc 4e bd a5 c3 98 3d be 16 02 3d b5 76 0d bd
       -0.05050305 0.07459191 0.03175997 -0.034537036
000280 8c 6f 1a 3d ef 47 dd 3c 4a 3c 2f bd bf 83 a3 3d
       0.037704036 0.02701184 -0.042782106 0.07984113
000290 33 29 20 3d 2b b2 84 3d 15 e8 26 3d 52 e9 6f 3d
       0.03910179 0.06479295 0.040748674 0.05857212
0002a0 98 2a 52 3d a0 23 80 ba b4 75 4a 3d 0e 50 ba 3c
       0.05131015 -0.0009776242 0.049428657 0.022743251
0002b0 38 ef 96 bd 4a 81 1a 3d 66 d5 ac 3d 56 6d aa 3d
       -0.07369846 0.037720956 0.0843914 0.083216354
0002c0 0d 58 b4 3d 25 ab 89 3b 73 a6 53 bd 54 38 50 bc
       0.08805857 0.00420131 -0.05167241 -0.012708742
0002d0 88 89 0d 3d ae aa 81 3d bf 51 97 3d c4 4f 18 bd
       0.03455499 0.06331383 0.07388639 -0.037185445
0002e0 6a 53 b1 3c 91 c4 5d 3d 4a db 70 bd f0 87 0e bd
       0.02164622 0.05414254 -0.05880288 -0.03479761
0002f0 48 d9 53 3d 6f 84 be bc d3 48 51 bd e3 d1 40 bc
       0.051720887 -0.023256509 -0.05109484 -0.011768791
000300 31 1f 07 bd 12 13 11 3d b9 bc 91 3c 67 65 ab bb
       -0.03298873 0.035418577 0.017790185 -0.005230594
000310 16 c4 89 3d f6 41 b6 3d 2e a8 5c 3d 95 2a 60 3d
       0.067268535 0.088993 0.053871326 0.05472811
000320 41 58 5c bc c8 f1 48 3d 7f 5b cb 3c 33 8c 65 3c
       -0.013448776 0.049058706 0.024823902 0.014010477
000330 63 b1 80 3d 34 86 d1 bc 3d 99 6b 3d 56 e5 d3 bc
       0.06283834 -0.025576688 0.057519186 -0.025866192
000340 b6 9e 17 3d cd 4e d1 3c 5b 50 c8 bb cc e9 1a 3c
       0.037016593 0.02555027 -0.0061130947 0.009455156
000350 c6 2d 60 bd 1a 02 3d bc b3 00 03 3d b0 8a f6 bc
       -0.054731153 -0.011536146 0.03198309 -0.030095428
000360 6d 31 7b bd 03 aa 24 bc 2c 5e a0 3d 1c c4 9f 3d
       -0.061326433 -0.0100503 0.07830462 0.07801077
000370 e9 2e 1e bd 68 95 a0 3d 88 61 98 ba dc 9b a1 3d
       -0.038618956 0.07840997 -0.0011625746 0.07891056
000380 47 8c 06 bd 23 f9 fb bc d4 ab 0e 3d 6e c6 7e bd
       -0.032848623 -0.030758446 0.034831837 -0.062200956
000390 ce c8 57 3d 5d a4 90 bd 5f 68 39 ba bd c8 69 3d
       0.052681737 -0.070626 -0.00070727424 0.057076205
0003a0 3f 1c c0 bc 95 31 12 3c e4 b2 ce 3b 39 a3 a1 bd
       -0.023450969 0.008922954 0.0063079465 -0.078924604
0003b0 c4 dd 22 bd 3f 75 44 3d e7 83 cf 3c f7 71 72 3d
       -0.039762273 0.047963377 0.02533145 0.059190717
0003c0 86 a8 80 3d 3c 73 81 3d 35 e6 6c bd c4 f4 a0 3d
       0.06282143 0.06320807 -0.05783673 0.07859185
0003d0 9d 6f b0 bc 95 d3 73 3d 78 c8 12 bd 41 4a 55 3d
       -0.021537596 0.059527952 -0.035835713 0.052072767
0003e0 81 3d 21 bd fc d2 0c 3d 0c 64 c5 3c 8a 3f 53 3c
       -0.039365295 0.034380898 0.024095558 0.012893567
0003f0 28 84 83 bb dd af 83 3c b8 82 95 3d 5c 39 90 3c
       -0.004013557 0.01607507 0.07300323 0.017605476

lstm.weight_hh_l0 f4 [512, 128]
000000 2a 1c 68 3d 00 1c 0e bc dd 4d a7 bc 12 8b 25 bd
       0.056667484 -0.008673668 -0.02042287 -0.04041583
000010 69 de 7b 3c 63 ea 73 bd 0f d6 75 3c bc 7d 98 3c
       0.015372851 -0.0595497 0.015004649 0.018614642
000020 2d eb a5 bd 48 43 48 3c 1c 4c 89 bd a8 ee 91 3d
       -0.08101497 0.012223072 -0.0670397 0.07125598
000030 11 a1 86 3d bf 50 bb bc 75 4b ca bc 66 d2 b5 bc
       0.0657369 -0.022865651 -0.024694184 -0.022195052
000040 70 72 86 3d a3 51 2d bd 91 ba 58 bc 4b 2c 88 3c
       0.06564796 -0.042314183 -0.013228075 0.016622683
000050 fb 8b 63 bd dd fe 0a bc 2c da 6d 3d 0e 66 f1 3b
       -0.055553418 -0.008483616 0.058069393 0.007366902
000060 ce 0f ad 3d c6 8b ad 3c 90 f4 b1 3c 96 4e 3b bd
       0.0845028 0.021184813 0.021723062 -0.045729242
000070 11 d8 9d bb e6 8b f6 ba 62 0b 64 3d b6 00 90 bd
       -0.004817017 -0.0018810004 0.055674918 -0.070313856
000080 b1 05 3f 3d 1c 17 d7 bb 86 b1 97 bd d5 02 1b 3d
       0.046636287 -0.006564034 -0.07406907 0.037844498
000090 70 cb 36 bd 4a c2 81 3c f9 ae a7 bd 8f f7 3b bc
       -0.044627607 0.015839715 -0.0818767 -0.011472597
0000a0 ca db 90 bd f9 0d 28 3b 7e 6b 97 bb 98 e8 aa 3c
       -0.070731714 0.0025643094 -0.0046209684 0.020862862
0000b0 93 38 4e bd b5 fc d5 3c 3f db 5b bd e5 72 35 3d
       -0.050346922 0.026121477 -0.053675886 0.044299025
0000c0 a9 c2 10 bd 36 34 6c bd f8 87 6c bd 3a e0 1b 3d
       -0.035341892 -0.05766698 -0.057746857 0.038055636
0000d0 f9 9a 93 3d 99 d5 19 3d 35 03 58 bd b7 14 be 3b
       0.07207293 0.03755722 -0.052737433 0.0058008092
0000e0 ea 2b 13 bd 73 30 8b 3c e2 f1 36 3c ab 11 0a 3d
       -0.03593055 0.016990876 0.011166068 0.033708256
0000f0 e8 a8 24 bd 30 9f ab 3c ff 50 3c bd 74 11 c6 bc
       -0.040200144 0.02094993 -0.04597568 -0.024178244
000100 5d c9 5f 3d eb ba 8e bd b2 45 76 3d 56 2a 77 bb
       0.054635394 -0.069692455 0.06012506 -0.0037714443
000110 6f a8 7a bd b7 1c 2d bc dd cf 67 3c 75 e4 97 3d
       -0.061195787 -0.010565928 0.01414868 0.074166216
000120 0a 72 fb 3c 20 a8 86 3d 98 43 01 3c 4c 51 84 3d
       0.030694026 0.06575036 0.007889651 0.06460819
000130 61 fc 7e 3d 32 e9 28 bd e3 b3 5f bd 21 fb 63 3d
       0.062252406 -0.041238017 -0.054614913 0.055659417
000140 50 61 b6 bc e6 c8 1b 3d 45 e9 90 bd f4 22 84 3d
       -0.0222632 0.03803339 -0.07075743 0.06451979
000150 20 59 5c bd 2f 28 bb bc 7c 4c 8b 3c d7 a4 17 bd
       -0.053795934 -0.02284631 0.017004244 -0.037022438
000160 2b eb 91 3d a9 d3 30 ba c4 70 7a 3a d7 0d 10 bc
       0.07124933 -0.0006745407 0.00095535466 -0.008792362
000170 50 34 15 bd 9b 88 da bc 74 90 96 bd 7b cf 0e bd
       -0.036426842 -0.026676467 -0.07351771 -0.034865838
000180 7f ae ae bb 3d f0 05 3d 7e c2 8e bd a9 17 41 3d
       -0.00533086 0.032699812 -0.0697069 0.047141705
000190 cc 9f a3 bd 51 2b 03 bd 3f fb 15 bd 8d 5c 52 3c
       -0.07989463 -0.03202373 -0.03661656 0.012839449
0001a0 64 33 32 3d f8 c9 34 bd 19 42 41 bd e1 36 85 3d
       0.04350604 -0.044137925 -0.047182176 0.06504608
0001b0 2a 22 1c bc 9c 73 46 bc 66 f5 73 bd 47 6f 6e 39
       -0.00952963 -0.012112524 -0.059560202 0.00022738903
0001c0 71 9f de bc e3 15 33 bd 17 1f 1c bc 6d b6 8c 3d
       -0.027175637 -0.043722045 -0.009528897 0.068707325
0001d0 30 e8 9d bd 6c 7e e0 bc 55 57 19 bc 37 3e 1a 3d
       -0.07710302 -0.027404033 -0.0093592005 0.03765699
0001e0 63 67 4a 3d 1d 46 4c 3b cf 09 00 bd 2c f4 85 3b
       0.049415004 0.003116972 -0.031259354 0.0040879454
0001f0 53 7d 81 bd 52 2c 77 bd 5b 39 f2 bc 97 d7 0f bd
       -0.06322732 -0.060345 -0.029568365 -0.035117712
000200 46 66 6a bc f8 9d ba 3c 8e 52 3e bd d8 21 f0 3c
       -0.01430661 0.022780403 -0.04646545 0.029313013
000210 e9 16 e5 bc 5e 88 30 bd af bb c9 3c cc 6b 71 bd
       -0.027965026 -0.0430988 0.024625627 -0.058940694
000220 c4 e2 ff 3b d0 57 21 3d ee 89 3a bd 3f a6 3a 3c
       0.007809015 0.039390385 -0.045541696 0.011392175
000230 bb 4c 49 3c 4f 78 7a 3d 78 2e 20 bd 53 e7 70 3d
       0.01228636 0.06114989 -0.039106816 0.058814358
000240 df bc 8d 3d c6 5b 18 3d cc 62 5b bd 06 4d a8 bd
       0.0692079 0.037196897 -0.053561017 -0.08217816
000250 57 d8 71 bd 5c 1b 70 bc ed 0d b9 3b 4a 63 8c bd
       -0.05904421 -0.0146549605 0.005647412 -0.068548754
000260 60 64 66 bd 46 00 ba 3c 8a f1 96 bc 3b d0 2b bd
       -0.05624807 0.022705209 -0.018425722 -0.04194663
000270 e0 c6 99 bc a6 b1 e8 3c 19 06 d6 3c 59 0a bd bc
       -0.018771589 0.028405022 0.026125954 -0.023076223
000280 05 45 7b bd f8 76 74 bc 24 c5 06 3d 67 4f 03 3d
       -0.06134512 -0.0149209425 0.03290285 0.032058146
000290 ac bd ad bb cd 25 da 3a 59 13 a3 bc ba bd 4f 3d
       -0.0053021517 0.0016643346 -0.019906687 0.050718047
0002a0 90 44 50 3d dc 6b 1b bd 36 13 23 bd 46 e1 27 bd
       0.050846636 -0.03794466 -0.039813243 -0.040986322
0002b0 64 2d 1d 3b 41 d0 56 bd 57 49 86 3c a2 93 8a 3d
       0.0023983354 -0.0524447 0.016392393 0.0676644
0002c0 5e 4c 27 3d 93 85 19 3d 68 c0 1d 3c 7b 58 d8 3c
       0.040844314 0.037480902 0.009628393 0.026409378
0002d0 a9 b8 6c bd e4 7e d7 bc 9f ad fe 3c 39 56 e6 bc
       -0.057793293 -0.026305623 0.031088648 -0.028117286
0002e0 b5 26 fa 3c ff f8 0f 3d ca c6 6f 3d e3 1a 17 bd
       0.030536035 0.03514957 0.05853919 -0.036890876
0002f0 bc 9d 5e bd c1 31 81 3d 91 f7 11 bc b7 10 12 3c
       -0.054349646 0.06308318 -0.008909122 0.008915118
000300 3d 66 ad bd df f0 cd bc ba 0c a9 bc e9 f2 dc bc
       -0.08466766 -0.02513927 -0.020635951 -0.026971297
000310 30 33 0d 3d 6d 1e 4a bd 02 57 fe bc b1 ad 16 3c
       0.034472644 -0.049345423 -0.031047348 0.009196685
000320 39 56 2c 3d 4e dc 8c 39 95 45 f7 b9 90 63 bf 3c
       0.042074416 0.0002686702 -0.00047163354 0.023362905
000330 84 df c0 3b c8 6a c6 3c 27 5e 93 bc 97 1b d8 3c
       0.00588602 0.02422084 -0.017989231 0.026380343
000340 71 c5 5c bc de 3e 07 bd b3 44 0d 3d 23 df 4e 3d
       -0.013474808 -0.03301894 0.034489345 0.05050577
000350 4a 72 ba 3c 45 27 8c 3c 37 e6 7f 3d a4 44 f4 bc
       0.022759575 0.017108569 0.06247541 -0.029817887
000360 70 84 4a bd f3 83 8d bd 7b 72 9e bd 34 42 47 3b
       -0.04944271 -0.06909933 -0.07736679 0.003040445
000370 60 20 95 bd 60 c7 e2 bb 20 cf a5 bd e5 41 ba bd
       -0.07281566 -0.00692074 -0.080961466 -0.090946
000380 9b 46 69 bd fe 2e 63 bb a1 5a 56 3d 04 f9 6a 3d
       -0.0569521 -0.003466546 0.052332524 0.057366386
000390 8a d3 df 3a ce 5b 6d 3c e8 ca ab bc 8d 28 87 bd
       0.0017076593 0.01448722 -0.020970777 -0.06599531
0003a0 d6 fe b8 3c 52 8a 9a bd f7 86 5e bd a1 ff b0 bc
       0.022582453 -0.07545914 -0.05432793 -0.021606268
0003b0 8b 43 a7 3c c4 27 a9 bd 82 aa af bd 05 a1 8d 3d
       0.02041795 -0.08259538 -0.08577444 0.06915478
0003c0 d6 9a 71 bd c8 c8 e3 3c bd a5 92 3d b7 ed c2 3c
       -0.058985554 0.0278057 0.07160518 0.023794992
0003d0 38 51 de 3c 06 71 39 3d 0c c3 ed 3c f9 9a 4f bd
       0.027138337 0.045273803 0.02902367 -0.050684903
0003e0 c2 7a 1f 3d 95 36 80 3c 27 80 a4 3b 65 27 8c 3d
       0.03893543 0.015651027 0.0050201598 0.068434514
0003f0 6b 83 39 bd 08 bf 95 3a 25 75 8e bc db 66 68 bd
       -0.045291346 0.001142473 -0.017389843 -0.056738716

lstm.bias_ih_l0 f4 [512]
000000 80 f6 82 3c 98 1f 78 3d ef aa 47 3d 06 ce e7 3b
       0.015986681 0.060577005 0.048747 0.0070741205
000010 43 62 94 bd a9 b0 45 3c e7 1c 16 bb 59 e2 96 3d
       -0.072453044 0.012066045 -0.002290541 0.07367391
000020 04 3b 73 bd d0 9f 70 3b 42 3b 58 bd a6 35 c3 bb
       -0.059382454 0.003671635 -0.052790888 -0.005957323
000030 10 23 2b bd 08 7d 9f 3d 78 03 86 3b 23 0c 7b 3c
       -0.041781485 0.0778752 0.004089769 0.015322718
000040 30 98 c0 3d d1 f7 77 3d b3 98 da 3c f7 c6 a8 bd
       0.094040275 0.06053907 0.02668414 -0.082410745
000050 e1 6b 49 bd 71 44 1b bd 94 82 6b bd 29 b0 1f bd
       -0.049175147 -0.037907068 -0.057497576 -0.03898636
000060 13 a1 86 bd f5 3e 8d 3d d2 e2 39 3c be 21 37 3d
       -0.06573691 0.06896774 0.011345582 0.044709913
000070 d3 3c 2f bd a4 4b de 3c d6 dc 95 3d 1a fe ba 3c
       -0.042782616 0.027135678 0.07317512 0.022826243
000080 79 f9 89 bd fb 61 80 bd bb 62 dd 3c b4 a8 98 3d
       -0.06737036 -0.06268688 0.027024617 0.074540526
000090 a6 53 ed 3c 4d 59 b8 3d 13 74 9d bd 19 1e 70 bd
       0.02897055 0.09001408 -0.07688155 -0.058622453
0000a0 82 04 fb ba 4e 5c 0f bd be cc a6 3d 3a 0e 59 3b
       -0.0019151124 -0.035000138 0.0814452 0.0033120052
0000b0 79 fe a7 bc 36 41 88 bc f4 58 87 3d 8c 39 38 bc
       -0.020507084 -0.016632657 0.06608763 -0.011244189
0000c0 47 6b 87 bd a1 68 97 bd ee a3 ce 3b 5b b1 99 bc
       -0.066122584 -0.07393003 0.006306163 -0.018761327
0000d0 46 46 1f bc e9 0e 42 3d 12 ba 00 bd f3 1b df bc
       -0.009721344 0.0473775 -0.03142745 -0.027235007
0000e0 c5 10 55 bd fb 4b a1 3d d5 81 7a bc 8b ad aa 3d
       -0.052017946 0.0787582 -0.015289743 0.08333882
0000f0 d8 33 57 bd 0f fa 20 bd f9 34 49 bd 4c 62 98 bd
       -0.052539676 -0.039300974 -0.049122784 -0.07440624
000100 88 ce 6d bd 1f 44 65 3d 92 7d a6 bc be 09 28 3d
       -0.05805829 0.05597317 -0.020323548 0.041024916
000110 93 b2 30 bd 73 14 af bd 54 05 6d 3d 8c da 74 bd
       -0.04313905 -0.08548822 0.05786641 -0.059778735
000120 d0 3f 48 bd 18 98 2d 3d 13 36 28 bd a1 64 7b bd
       -0.04888898 0.042381376 -0.041067194 -0.061375264
000130 d7 dd b6 3c a0 64 8e bc e3 73 91 bd eb 80 cf 3d
       0.022322578 -0.017381966 -0.07102182 0.10132011
000140 b7 02 b7 3d 12 e5 b5 bd 7d f6 22 3c 9b 84 6b 3d
       0.08936065 -0.08881582 0.009946463 0.05749951
000150 2a 7c ed 3c a7 56 8f bd 92 c0 4f bd 8c 87 87 3c
       0.02898987 -0.069989495 -0.05072076 0.016544126
000160 a6 06 a8 3d c0 c7 8d 3d 92 94 38 3c ec d2 cb 3d
       0.08204393 0.06922865 0.011265891 0.099523395
000170 66 b2 82 3c cc d9 90 bc 0c 39 90 bd 1d 4b 10 bc
       0.015954208 -0.017681979 -0.07042131 -0.008806971
000180 9a 83 12 3c 19 c4 bc bc fd a1 6e 3d ef da f8 ba
       0.008942509 -0.023042725 0.058259953 -0.0018986146
000190 cd 35 84 bb cd 1a 1b bd 34 e9 34 bc 2f 3a e3 bc
       -0.004034734 -0.037867356 -0.011041928 -0.027737705
0001a0 18 fe 1d bd 2e 64 22 3d 0f a5 92 3d e1 23 15 bc
       -0.0385724 0.03964632 0.07160389 -0.0091027925
0001b0 1a 17 b7 3d 29 95 37 bd 62 1f d3 3c d0 93 a5 3d
       0.08939953 -0.044819985 0.0257718 0.080848336
0001c0 12 de 0f bd e6 16 ef bc 35 63 b5 3d 02 e0 8b 3d
       -0.035123892 -0.029185724 0.08856813 0.068298355
0001d0 4c 3a c0 3d 3f b2 37 bc ba 40 62 bd 2d 2e 39 3b
       0.09386119 -0.011211931 -0.05523751 0.0028256283
0001e0 16 98 54 3d 3d 97 15 3d 91 a8 25 bd 5b f4 e3 3c
       0.051902853 0.036521185 -0.04044396 0.027826479
0001f0 29 ed 37 bc f5 e3 91 bd 08 74 4a bd 7c ef 94 bd
       -0.011225977 -0.071235575 -0.049427062 -0.072722405
000200 c7 b7 26 bd dd f8 c4 bc 6b e0 ea bc c8 1a b8 3d
       -0.040702607 -0.024044449 -0.028671464 0.08989483
000210 b2 f2 9c bc 7d f6 9d bd b2 8f 01 bd a0 89 f8 ba
       -0.019158695 -0.077130295 -0.03163118 -0.0018961914
000220 e7 bb 75 3d 82 75 a9 bd 06 04 57 bd 95 f1 89 bd
       0.05999365 -0.08274366 -0.05249407 -0.06735531
000230 16 b2 6c 3d 21 1f 15 bc ec 37 85 3d 1d bf 28 3d
       0.057787023 -0.00910166 0.06504807 0.041197885
000240 28 ff 81 3c ff cb f1 bc c2 a4 b8 3c 1e 94 96 3d
       0.015868738 -0.029516218 0.0225395 0.0735247
000250 90 f9 99 bc 41 64 81 bd 0e 26 8c 3c 92 86 d8 3c
       -0.018795758 -0.0631795 0.01710799 0.026431356
000260 ac 9d 30 3d c6 cb 12 3c 65 f5 0e bd 1e 60 72 3d
       0.043119118 0.008959716 -0.034901995 0.059173696
000270 ad 8c 53 3d 00 47 5d bc cb 4f 8a 3d 01 ae 72 3d
       0.05164783 -0.013505697 0.067535006 0.059247974
000280 6b 51 ea 3c c9 9d 7c bd 62 3e 81 3d e9 da 37 bd
       0.028603276 -0.061673913 0.06310727 -0.044886503
000290 e7 31 5c 3c 17 9c 81 bd 87 6e 1a 3d c6 e1 e1 bb
       0.013439632 -0.063286 0.037703063 -0.0068933694
0002a0 4c ae fc bb fc 2d a5 3d 01 d8 52 bd 0e c9 2e 3c
       -0.0077112075 0.080654114 -0.05147553 0.010668052
0002b0 c7 6e 18 bd b5 92 23 3c ed 98 0b bd e3 10 66 3d
       -0.03721502 0.009983708 -0.03408139 0.05616845
0002c0 3b 92 65 bd be b6 5e bd e9 60 85 3d 84 b8 f6 ba
       -0.05604766 -0.054373495 0.06512625 -0.00188233
0002d0 54 6d 38 3a 94 81 63 3d 4f 2a 26 3d d3 9c b5 3d
       0.0007035334 0.055543497 0.040567692 0.088678025
0002e0 2c 22 89 bb 61 d8 97 3d 5c bb 2e 3d 75 b2 1a 3d
       -0.004184982 0.07414318 0.04265915 0.037767846
0002f0 89 92 dc 3c 06 7d 2c bd 71 c9 6f bc 87 55 b6 3c
       0.026925342 -0.04211142 -0.01463543 0.02225758
000300 7c be 8e bd 0f 9c cf 3c 6d b7 cb 3d 18 52 20 bc
       -0.06969926 0.02534297 0.09947095 -0.009785198
000310 fc 13 6b 3d 56 11 9d 3d 36 14 2f bd 83 ef 05 3d
       0.057392105 0.07669322 -0.042743884 0.03269912
000320 10 75 09 3c 24 50 11 bd cd bb 62 bd d9 dd 55 bd
       0.008389726 -0.03547682 -0.055354882 -0.052213524
000330 03 88 82 bd 5d 1d a4 bd a0 08 98 bb f0 86 86 3d
       -0.063735984 -0.08013413 -0.0046397 0.06568706
000340 92 e3 32 3d 6b 0e da 3c 9a 6e 98 bc 8c fa 96 bd
       0.04367406 0.026618203 -0.018607426 -0.07372007
000350 d6 87 59 bb 97 24 94 3d 00 f4 ed 3c 0b f8 cd 3c
       -0.0033192537 0.072335415 0.029047012 0.02514269
000360 11 f4 df 3c fc f8 70 3d 9c 72 27 3d 4f 22 04 bd
       0.02733806 0.0588312 0.040880784 -0.03225928
000370 1d a4 8c bd 22 a4 5a bd 6a 72 b6 3d ef 60 1d bd
       -0.068672396 -0.053379185 0.089085415 -0.03842252
000380 9a 52 95 bd e0 6d 91 3d d5 ed c7 3b 26 ea 7e ba
       -0.072911456 0.07101035 0.00610135 -0.0009724222
000390 0b 22 45 3d 49 e1 0b 3c 33 e5 12 bc 1d 0e f7 bb
       0.04812817 0.008537599 -0.008965778 -0.007539524
0003a0 37 ef ed 3c 70 fc 15 3c 49 73 80 3c 6f 3d b6 bd
       0.02904473 0.009154424 0.015679972 -0.08898436
0003b0 1e 31 fe 3c f3 a2 ba 3d 30 f6 ba 3d 37 e8 78 bd
       0.03102928 0.09113111 0.09128988 -0.060768332
0003c0 be 30 5f 3c e1 97 fb 3c d1 35 ac 3d 0a 00 98 bd
       0.013622461 0.03071207 0.08408702 -0.074218825
0003d0 1f 6e 58 3c 31 39 85 bd b7 43 8d bd d6 26 92 3d
       0.013209849 -0.06505049 -0.06897681 0.071363136
0003e0 8b 18 25 3d 2e 37 cf 3b c7 e4 20 3d 75 bf b7 3d
       0.04030661 0.0063237166 0.03928068 0.089720644
0003f0 6c 59 48 bd 9e c0 c1 bd ae 01 a4 ba 2a 56 1b bd
       -0.048913404 -0.09460567 -0.0012512708 -0.03792397

lstm.bias_hh_l0 f4 [512]
000000 8d 0b 10 bc 7f 83 3a 3d 27 4f d6 3c 08 18 05 3c
       -0.008791816 0.04553556 0.02616079 0.008123405
000010 f4 9b 21 bd fc 4d 15 bd 42 a5 82 bd 62 a7 1f bd
       -0.03945537 -0.036451325 -0.06379177 -0.038977988
000020 2c 32 f8 3c e8 73 e6 3c 81 0c 2a 3d 8b 3f 45 3d
       0.030297361 0.02813144 0.04151583 0.048156302
000030 c9 79 7c 3b fe 9f 4f 3c 6b 7d a9 bc ce 52 a7 bd
       0.0038524738 0.012672422 -0.020689687 -0.081700906
000040 b9 c5 9a 3c 45 fc 8a bd 35 41 7a bd c7 25 ae 3c
       0.01889311 -0.06786398 -0.061097343 0.021258248
000050 94 65 a3 bb 22 31 ea bc 20 9a ad 3c cb 92 6e 3d
       -0.0049864743 -0.028587881 0.021191657 0.05824546
000060 1f 2b 26 bc e2 9e 35 3c d1 6d 7a 3d 4c da 5c bd
       -0.010142117 0.011085244 0.061139885 -0.05391912
000070 f9 ac 13 bd 5b 02 95 3c b1 aa 02 3d 19 e3 5c 3d
       -0.03605363 0.0181896 0.031901065 0.053927515
000080 fe 86 ad bc d1 97 d8 bb 68 a5 a4 bc cd 24 41 3d
       -0.021182533 -0.006609895 -0.020098403 0.047154237
000090 ae 0b c7 3d 35 b1 a5 bd ed c4 86 bc 1a fb 66 bd
       0.097190246 -0.0809044 -0.016451323 -0.056391813
0000a0 8e d8 4b bd d6 5d 50 3d 9c 54 a5 bd 03 54 45 3c
       -0.04976707 0.05087074 -0.080727786 0.012043956
0000b0 0b 73 e5 bc 8e c4 9a 3d 0a 37 5a bd ea a1 83 3c
       -0.028008958 0.07557021 -0.053275146 0.016068418
0000c0 7b 7e 7f bc cd e2 2c bd 36 74 87 3d 01 54 fc bc
       -0.01559412 -0.04220848 0.06613962 -0.030801775
0000d0 53 9a b5 bc a7 2c 8b bd e1 73 a2 3c 59 2a 8b bd
       -0.022168314 -0.06795626 0.019830646 -0.067951865
0000e0 41 3f 29 3c cd 33 c5 bb 54 3e 25 bd 3c 97 e3 ba
       0.010330022 -0.006018138 -0.040342644 -0.0017363797
0000f0 f5 7a 43 bd fa 03 b6 bc 2b dd cb bc 93 a7 2f bd
       -0.047724683 -0.022218693 -0.024885735 -0.04288442
000100 7c 1d a7 bc f1 fe 06 3d 0c f2 13 3d ea 4b 60 3d
       -0.020399801 0.032957975 0.036119506 0.054759897
000110 b7 4c b5 3d a5 ce 3e bd cf 05 f8 bc 7d 13 a5 3d
       0.08852523 -0.04658379 -0.030276207 0.08060358
000120 24 0d 2e 3d dd 33 10 3d 5f 65 8f bd f3 ee 88 bd
       0.042493 0.03520571 -0.07001757 -0.06686201
000130 2f ea 38 3d a4 d0 30 3a af 60 5f bd fb f3 3a 3d
       0.04514521 0.0006744957 -0.054535564 0.045642834
000140 a7 c0 03 bd 0c 10 56 bc 99 ed 0c 3d 7d 8c 62 3d
       -0.03216615 -0.013065349 0.03440628 0.05530976
000150 e0 79 99 3c f9 a0 93 bd 2b c7 af 3d e8 d2 32 3d
       0.018734872 -0.072084375 0.0858291 0.043658167
000160 ca 2a f6 3b 42 1a 34 bd a2 82 05 bc e4 c3 4a 3c
       0.007512425 -0.043970354 -0.008148821 0.0123758055
000170 6a 84 85 3d 7f cf b8 bc 0a 71 c6 3d 2c a8 68 3c
       0.065193966 -0.02255988 0.09689529 0.014200252
000180 ff 4a 7e bd 77 eb 14 3c fa ad a9 bd a5 3e b8 3d
       -0.06208324 0.009089342 -0.082851365 0.089963235
000190 c1 67 c7 3c 6d 7d 74 3d 62 8d af 3d 05 58 9f bc
       0.024341466 0.059689928 0.085718885 -0.01945115
0001a0 09 46 95 bd c5 1c c1 3d e3 28 ad 3d 04 7b de 3b
       -0.07288749 0.094293155 0.08455064 0.006789567
0001b0 2b b5 84 bd 32 62 ac bc da cd 58 ba d2 5f 90 bd
       -0.064798675 -0.021042917 -0.00082704204 -0.07049526
0001c0 a4 85 05 3d 8e 44 a8 bd b4 8a 8a 3d 10 e5 e5 bc
       0.032598153 -0.08216201 0.06764737 -0.028063327
0001d0 49 b7 ae 3d 9f 6e b8 3d a7 d0 ad 3c 72 c3 83 3d
       0.085310526 0.09005474 0.021217657 0.064337626
0001e0 eb 73 8d 3b 64 ff a2 bd 26 91 89 bd 12 c3 ea 3c
       0.004316797 -0.07958868 -0.06717138 0.02865747
0001f0 99 4a ad 3d 0f a1 8e bc cf 66 5b 3d eb e2 c4 bd
       0.08461494 -0.017410783 0.053564843 -0.09613594
000200 5e 16 0b 3d ef c9 cf 3b c3 b6 fd bc da 7f f3 bc
       0.033956878 0.006341211 -0.030970937 -0.02972405
000210 fe 13 30 3c b3 30 38 3d 65 31 55 bd b2 e5 0a 3d
       0.010746954 0.04496832 -0.05204906 0.03391046
000220 f2 11 d7 bc b0 6c 78 bd 8f 7e 48 3d 6c e5 92 bd
       -0.026253674 -0.060650527 0.04894882 -0.07172665
000230 5a 68 91 3c f1 a5 56 3d 63 97 48 bd 31 ff fa 3c
       0.017749954 0.052404348 -0.0489725 0.030639263
000240 9f ae 7e 3d 7f a5 a2 3d d3 6f b6 3c a9 56 f8 bc
       0.06217825 0.07941722 0.022270119 -0.03031476
000250 99 36 62 bd 55 e3 6f bd e8 fa 85 bd d1 52 a0 bd
       -0.05522785 -0.05856641 -0.06541997 -0.07828296
000260 32 5d da 3c 90 ad a7 3d db 6b d7 3b 12 84 8d 3d
       0.026655767 0.08187401 0.0065741367 0.06909956
000270 e9 f0 e0 3c f4 78 9c 3d 22 ac 19 3d 21 83 8c bd
       0.027458625 0.076402575 0.037517674 -0.06860948
000280 d6 21 09 bd 01 e7 d6 bc dd 11 27 3d 98 a6 9c 3d
       -0.033479534 -0.026233198 0.04078852 0.07648963
000290 f7 0b 8e 3d b0 aa 3f bd 70 0c 20 bd 9e 8d 14 3d
       0.06935876 -0.04679364 -0.03907436 0.03626787
0002a0 ee 8b 8d bd 26 38 82 3d d2 90 9d 3b 22 c1 da 3d
       -0.06911455 0.06358366 0.0048085237 0.106813684
0002b0 ef 52 87 bb d2 75 12 3d 9a ac 05 3d 81 3d 7c bc
       -0.0041297595 0.035756893 0.03263531 -0.015395523
0002c0 a7 c5 dc bc 5a b1 86 3d 1b 9e 2a 3d 66 9e 4c 3d
       -0.026949717 0.06576796 0.041654687 0.049955748
0002d0 cc de 99 3d a2 4d 19 bd ea c0 a7 3d bf 81 b8 3d
       0.07513198 -0.037427552 0.08191092 0.09009122
0002e0 e5 0b bf 3d 63 b5 ae 3c c7 9d 8c ba fc 53 7a 3d
       0.093284406 0.021326726 -0.0010728174 0.06111525
0002f0 79 29 80 3d 91 fd e9 bc 05 ad 78 3d b5 3e 9c bd
       0.0625791 -0.028563293 0.06071188 -0.07629148
000300 78 53 7a 3d fb 84 6b bd fa d9 ce 3d c1 24 69 3d
       0.06111476 -0.057499867 0.101001695 0.056919817
000310 84 69 83 ba 99 d6 05 bd 1a 57 47 bb a1 c0 7a 3d
       -0.0010025953 -0.03267536 -0.0030416907 0.06121886
000320 cd aa fc bc 39 21 ce bb 70 ae 80 3c e4 f0 65 3d
       -0.030843163 -0.0062905815 0.015708178 0.056137934
000330 ad 54 6c bd 84 18 8b 3d d4 56 43 bc 4a 72 74 bd
       -0.05769794 0.06791785 -0.011922557 -0.059679307
000340 f3 37 83 3d d0 74 1f bd 80 0c 4f 3d 76 9e fe ba
       0.06407156 -0.03892976 0.05054903 -0.0019425887
000350 8a bb 84 bd b5 a2 3f bd 77 e9 5b bd 4e b1 95 bd
       -0.06481083 -0.04678603 -0.053689446 -0.07309209
000360 0c fa 71 bd 7a 9d c8 bb 01 66 80 3d 9a 1f cc 3d
       -0.059076354 -0.0061222883 0.06269456 0.09966965
000370 5e 94 8e bd c4 e1 44 3d 01 60 15 bd 0f 6c 4b bd
       -0.069618925 0.04806687 -0.03646851 -0.0496636
000380 ba f6 19 3d 18 e7 68 3d ca f2 6c 3d 34 1e 72 bd
       0.037588812 0.056861013 0.05784873 -0.059110835
000390 36 f8 94 bd 84 51 5b 3d 56 9f c2 bc cb 52 c2 3c
       -0.07273905 0.053544536 -0.023757618 0.02372112
0003a0 d4 6c b0 3d 8e 45 9a bb bd e0 87 bd 87 59 6a 3d
       0.08614507 -0.0047079986 -0.06634662 0.057214286
0003b0 7f bf 9c 3d 9d 16 50 3d 4b 2f 5d 3d 82 46 21 bd
       0.076537125 0.050802816 0.05400018 -0.039373882
0003c0 52 68 b5 3d 90 29 8a 3c 41 71 a0 3d f3 83 57 bc
       0.08857788 0.016865522 0.078341015 -0.013154018
0003d0 9f 8c 9b 3d ec 9b 40 bc 01 b0 09 3c f9 da 9a 3d
       0.07595181 -0.011755925 0.008403779 0.07561297
0003e0 d5 16 73 bd bd d5 8a 3c f2 ac d5 3d c7 fc 77 3d
       -0.059347946 0.016947621 0.10433377 0.0605438
0003f0 77 68 43 3d 6b 1f c6 bb 3d 83 77 bd 47 81 6d 3d
       0.047707047 -0.006046226 -0.060427893 0.057984617

fc.weight f4 [2, 128]
000000 85 c0 80 3d 68 0f 6b bc a8 51 f2 3c 63 d1 9f 3d
       0.0628672 -0.014346935 0.029579952 0.07803609
000010 9c 9a 89 3d 08 17 9d bc 9a 0d 65 3d 88 62 be 3d
       0.067189425 -0.019176021 0.055921175 0.09296137
000020 3a cc 4d bd 7a be 9c bb 62 21 9a bd ef b0 4a bd
       -0.050243594 -0.0047834488 -0.075258985 -0.049485143
000030 5e 72 db 3b 45 26 0f 3d 65 ad 83 3c 1f aa b2 3d
       0.0066969832 0.034948606 0.016073892 0.08723854
000040 64 57 8c bc 5f c4 36 3d ce ec 8f 3c 02 25 8c bd
       -0.017131515 0.044620868 0.017568972 -0.06842996
000050 48 f2 d3 3c e8 aa 51 bc 5b 7f 21 bb 9e 22 93 3d
       0.025872365 -0.012797095 -0.002464256 0.07184337
000060 5f ac c3 3d e0 b9 6d 3d e5 ac 98 3d fc b4 28 bd
       0.095543616 0.058038592 0.07454852 -0.041188225
000070 3f 98 57 3d 43 85 37 3d 34 66 96 3d fd e2 ca bd
       0.052635428 0.044804823 0.073437124 -0.09906576
000080 5a f1 ca 3d 9a 2b 27 3d 34 35 33 bd 19 02 6a 3d
       0.099093154 0.040813066 -0.04375191 0.057130907
000090 c4 a2 78 3d 99 30 a2 bd d9 98 8d 3c 3c df 03 bd
       0.0607021 -0.079194255 0.017284798 -0.032195315
0000a0 9c e1 40 3d 9b a9 8d bd fe 5a 9d 3d f4 f1 d1 3d
       0.047090158 -0.06917115 0.07683371 0.10251227
0000b0 9d 2a 89 bd 71 12 a4 3d e0 46 6b 3d 91 d5 15 bd
       -0.06697581 0.0801133 0.05744064 -0.036580626
0000c0 e9 42 08 3d 77 7e 6c bd 4a f5 46 3d e9 66 15 bc
       0.033266935 -0.057737794 0.04857377 -0.009118774
0000d0 63 f8 f4 3c 77 89 28 3c 30 41 de bc b6 86 b0 3d
       0.029903596 0.01028668 -0.027130693 0.08619444
0000e0 98 b5 14 3c cc 51 84 3d 78 ee c6 bc 5b 6d bb 3b
       0.009076498 0.06460914 -0.024283633 0.0057198233
0000f0 a4 27 8f bd 27 c8 b6 3d 63 e7 de bc ab 79 04 bc
       -0.06989983 0.08924895 -0.027209943 -0.0080856485
000100 1d be 36 bd 5a 4d f9 3c ff e5 11 3d 12 c8 80 3d
       -0.0446149 0.030432392 0.035619732 0.062881604
000110 10 ba 8a 3b 0b 5f 56 bd 87 7c b6 3d a5 bd c3 3c
       0.004233606 -0.052336734 0.089104705 0.02389414
000120 cf be c3 3d f3 cd 80 bc dc 68 a6 bd 90 6d 70 bd
       0.09557878 -0.015723204 -0.08125469 -0.058698237
000130 b1 08 c4 bd d4 48 1d 3b 3b 4b ba 3d 84 99 ca 3d
       -0.0957197 0.0023999708 0.0909638 0.09892562
000140 cd 04 9e 3d bf ac a5 3d 87 ab a2 bc 16 75 67 3d
       0.077157594 0.08089589 -0.019857181 0.056508146
000150 95 38 60 3d 7c fe 4c bd e2 a7 23 3c 55 d8 eb 3c
       0.05474146 -0.050047383 0.009988757 0.028789679
000160 66 cc 88 3d ec d5 53 3d 46 93 52 3d e0 92 17 bd
       0.06679611 0.051717684 0.051409982 -0.037005305
000170 3c 29 c7 3d 86 ac 55 3d dc 04 ae 3d 2b 7a 69 3d
       0.09724662 0.052166484 0.084970206 0.057001274
000180 90 90 32 bd ad cf 40 bd 5e 1f bd 3d 03 5d 52 bd
       -0.043594897 -0.047073055 0.092344984 -0.051358234
000190 28 09 28 bd 35 29 a2 bd 60 f4 6d 3c 83 13 26 3d
       -0.041024357 -0.07918016 0.014523596 0.04054595
0001a0 f1 66 b8 3d 8e 78 d1 3d d3 fb 9b bc dc ec 6d 3b
       0.090040095 0.10228072 -0.019040978 0.003630451
0001b0 3c 62 1e 3d d2 7f 97 3d 41 8a b2 3d 8f 11 b7 bc
       0.038667902 0.07397427 0.08717776 -0.02234724
0001c0 2e 65 08 3c 7b d7 f7 bc cf 48 44 3d f7 ad 8c bd
       0.008324904 -0.030254116 0.047921 -0.06869119
0001d0 4d b8 d8 bd c6 ba b8 3d f5 e3 54 bd 73 ad a1 bd
       -0.105820276 0.09019999 -0.05197521 -0.07894411
0001e0 2d ee b6 3d ad 4d 9a 3c 96 2a 55 bd de 2d fa 3c
       0.08932147 0.018835867 -0.052042566 0.03053945
0001f0 06 2a 66 3d a9 4a 13 bb 3b 91 3c 3c f7 74 ab bc
       0.05619242 -0.002247492 0.011509235 -0.020929797
000200 59 4e 34 3c f0 eb 26 bd 36 fa ad bd 18 51 1a bc
       0.011005008 -0.04075235 -0.084949896 -0.009418748
000210 4d ef 09 3d c8 7d 3a 3d 61 06 b7 bd 87 95 a0 3d
       0.03367548 0.04553011 -0.089367636 0.0784102
000220 22 0f 91 3d eb 59 b2 bc 90 a9 67 3c a6 7f aa 3d
       0.070829645 -0.021771392 0.014139548 0.08325128
000230 4a 91 87 bd a6 e9 ad bd c3 62 95 bd 49 f3 46 bc
       -0.066195086 -0.084918305 -0.07294228 -0.012142965
000240 59 49 50 bd a7 4b bd bd 43 85 27 3d 93 a6 c2 bc
       -0.0508512 -0.09242945 0.040898573 -0.02376107
000250 5c 9f be bd 66 4a f7 bc 74 18 75 bd ed 23 fa bc
       -0.09307739 -0.030186843 -0.059837773 -0.030534709
000260 3e b3 fa bc 31 b5 d0 bc c9 cb 75 3d 7c db 02 3d
       -0.030603047 -0.025477024 0.060008798 0.031947598
000270 7d 30 6b 3c a2 6e 7d bd 27 6e 9c 3c d2 da a6 3d
       0.014354822 -0.061873086 0.019095493 0.081472054
000280 bc 60 af bd 1a 04 0b bd 57 05 83 3d 48 3c d1 bd
       -0.085633725 -0.03393946 0.06397503 -0.10216576
000290 e3 b8 ad ba ab d1 94 3c e4 61 bd 3b 50 b4 87 3d
       -0.0013253953 0.018166384 0.0057794917 0.06626189
0002a0 34 c7 8b 3d 35 fb 2f 3c de 06 9c bd 0d a0 f2 bc
       0.06825104 0.010741045 -0.07618497 -0.029617334
0002b0 9a 62 0e 3c 2b 64 10 3c 80 c2 bb bc e8 90 0e 3b
       0.008690501 0.008812944 -0.022919893 0.0021753851
0002c0 0c cd b9 b9 87 b7 29 3d 75 a9 ab bd b2 5d 5d bd
       -0.00035438722 0.04143479 -0.08381931 -0.054044433
0002d0 55 9d 5e bb e9 7e 08 3c b6 37 9b bd 15 1a 86 3d
       -0.003396829 0.008331039 -0.075789854 0.065479435
0002e0 ed bf 43 3d 24 08 08 3d 25 a4 f8 bb cb 48 53 3d
       0.047790457 0.03321089 -0.007587927 0.051583093
0002f0 f7 38 9e bd f6 ef 89 3d 59 fd a2 3d cd 05 80 3d
       -0.07725709 0.06735222 0.079584785 0.062511064
000300 7e ab d1 bd 79 34 cf 3d 39 74 6a 3c 45 7b 61 3d
       -0.10237788 0.1011743 0.014309936 0.0550492
000310 bb 0f 43 3d 12 29 52 3d ff ad 3a bd 4c e6 97 bc
       0.047622424 0.0513087 -0.04557609 -0.018542431
000320 3b ed 35 bc 49 43 ac bd 9b d5 d2 3d c7 92 92 bd
       -0.011103923 -0.08411271 0.10294648 -0.07156902
000330 96 cd 6f bd 13 4e 15 3d b9 6c 82 bb eb 99 b2 bd
       -0.05854567 0.03645141 -0.003980246 -0.08720764
000340 61 c9 c3 bd 00 6d 5c bd dc c1 c1 3d 33 db 86 bc
       -0.09559894 -0.053814888 0.09460804 -0.016461944
000350 92 96 0c 3d 42 e2 94 3c d6 2a 2a 3d f8 8e 81 3d
       0.034323283 0.018174294 0.041544758 0.06326097
000360 f6 c7 b1 bd a8 1d 79 bc 4c 69 e7 bc 11 3b c0 3d
       -0.08680718 -0.0152048245 -0.028248452 0.09386266
000370 de 0e c3 bc ba d1 11 3c f5 b9 b9 bd ed 60 65 3d
       -0.0238108 0.0089001 -0.090686716 0.05600064
000380 b5 3c 35 3c f6 28 88 3d 62 55 c8 3c 9c e8 9a 3d
       0.011061837 0.06648438 0.024454776 0.07563898
000390 69 47 ab 3d 01 54 63 3d 50 e0 5f 3c 7a 57 32 bb
       0.0836323 0.055500034 0.01366432 -0.0027212785
0003a0 c8 ec 53 bd 2e e2 57 bd 66 bf 0b 3c 3d b2 0c 3d
       -0.051739484 -0.052705936 0.00852952 0.03434967
0003b0 63 ea 82 bc 1e da 86 bd 4e 46 32 3d 6f 91 ad bc
       -0.015980905 -0.06584571 0.04352408 -0.021187512
0003c0 6b 71 80 3c 1f 43 11 3d 05 c6 df 3d 73 ef 09 3d
       0.015679082 0.035464402 0.10926441 0.033675622
0003d0 f5 26 c4 3d 72 36 87 bd 67 0e 3b 3d 8a fb 1a bd
       0.09577743 -0.066021815 0.045668032 -0.037837543
0003e0 de 95 c9 bb 36 4a 9e 3d f9 7d a3 3d 38 6e 98 3d
       -0.0061518988 0.07728998 0.07983012 0.074428976
0003f0 af dc 3e bd 99 47 48 bd 34 c4 aa 3d d8 3f 9f 3c
       -0.04659718 -0.048896406 0.08338204 0.019439623

fc.bias f4 [2]
000000 dc e2 1c bd dd de ac 3c
       -0.038302287 0.021102363
