runs/lstm/backup/best.pt (torch, 409329 bytes, 6 tensors)

lstm.weight_ih_l0 f4 [512, 68]
0	0x3d6d58e3	0.057946097
1	0x3d88e5b9	0.06684441
2	0x3da59241	0.08084536
3	0xbd4f4218	-0.05060014
4	0x3d94d526	0.07267217
5	0x3ce288e3	0.027653163
6	0x3cde0c52	0.027105484
7	0xbdb9760e	-0.0905572
8	0xbd3cc00b	-0.046081584
9	0x3d7118ff	0.05886173
10	0x3d4b0f79	0.049575303
11	0xbd2b7f23	-0.041869294
12	0xbd7dbb67	-0.0619463
13	0x3c895ae8	0.01676698
14	0xbb8e32f4	-0.00433957
15	0x3d0eaecc	0.034834668
16	0xbcd160e3	-0.025558895
17	0xbd922867	-0.071366124
18	0x3d91d186	0.071200415
19	0x3d953c44	0.072868854
20	0x3be3dc50	0.0069537535
21	0x3d5aa369	0.053378496
22	0xbd4c0fa8	-0.04981962
23	0x3d00cbd7	0.031444397
24	0xbdc704e9	-0.097177334
25	0xbd5d2ff5	-0.054000814
26	0x3d98bf3e	0.074583516
27	0x3db2a948	0.08723694
28	0xbc2fb84b	-0.010725091
29	0xbbea734c	-0.0071548577
30	0x3c245429	0.010029831
31	0x398aaa0f	0.00026448115
32	0x3d088c1f	0.033336755
33	0xbd52686a	-0.05136911
34	0x3d96704f	0.0734564
35	0xbc2d6ec6	-0.0105854925
36	0xbd219c65	-0.03945579
37	0xbd35ac69	-0.044353876
38	0xbd187c54	-0.037227944
39	0x3a852718	0.0010158746
40	0xbd986e39	-0.07442898
41	0xbd6295e8	-0.055318743
42	0x3d9c1ccd	0.07622681
43	0xbcb8f5f9	-0.022578226
44	0x3d44007b	0.04785202
45	0x3d0252e1	0.03181732
46	0x3dbd07e4	0.09230021
47	0xbd9ccc85	-0.076561965
48	0x3d5d8d72	0.05408997
49	0xbdc3d421	-0.09561945
50	0x3ccc8e8f	0.024970321
51	0x3a2d2cfa	0.00066061283
52	0x3cd1c953	0.025608694
53	0xbbaf8c8f	-0.005357332
54	0xbd8d4866	-0.068985745
55	0x3c938cb3	0.018011427
56	0x3dc36ada	0.09541865
57	0xbd4f02f0	-0.05053991
58	0x3d8f2484	0.06989387
59	0x3cf4adcf	0.029868035
60	0xbbcf0d73	-0.006318742
61	0x3dd405ae	0.10352646
62	0x3db24104	0.08703807
63	0x3dc369ea	0.09541686
64	0x3c82f59d	0.015986258
65	0xbcb44acd	-0.022008324
66	0xbce5f37b	-0.028070202
67	0x3d9a49f0	0.07533634
68	0x3ce9724c	0.028496884
69	0x3cf80388	0.030275121
70	0x3d531f1c	0.05154334
71	0xbd241a51	-0.04006416
72	0xbdd28e2c	-0.102810234
73	0x3d2bb69c	0.041922197
74	0x3d842a5b	0.06453391
75	0x3c3c5c10	0.011496559
76	0xbc36bf96	-0.011154076
77	0x3c4ddf6f	0.012565478
78	0xbcc07ab7	-0.023496015
79	0x3c75d5f9	0.015004628
80	0xbdca6035	-0.09881631
81	0xbd9ce261	-0.07660366
82	0x3ca3c543	0.019991523
83	0xbd828a73	-0.06374063
84	0xbd6950bc	-0.05696176
85	0xbcf89266	-0.030343246
86	0xbdbf39d8	-0.09337205
87	0xbd6bfe07	-0.057615306
88	0x3bdaf19c	0.006681634
89	0x3d8ac0e0	0.06775069
90	0x3dbcd633	0.09220543
91	0x3d0020b4	0.031281188
92	0x3d311033	0.04322834
93	0x3dab3227	0.08359175
94	0x3d57b415	0.052661974
95	0x3d3448a1	0.044014577
96	0x3d1e1e1f	0.038602944
97	0xbd25c01f	-0.040466424
98	0x3d3d2971	0.0461821
99	0x3d5141cc	0.05108814
100	0xbd435a56	-0.047693573
101	0x3db6be47	0.08923011
102	0xbcd719af	-0.026257364
103	0xbd2a1d81	-0.041532043
104	0x3d2ff8cb	0.042961877
105	0xbc05d4d7	-0.008168421
106	0x3cb22402	0.021745685
107	0x3be62ec0	0.007024616
108	0x3ca58f66	0.02020998
109	0x3c9338a4	0.017971344
110	0xbb370446	-0.002792613
111	0xbcd2bd5c	-0.02572506
112	0xbd2cc7d4	-0.04218276
113	0xbdbd56f4	-0.092451006
114	0x3c854143	0.01626647
115	0xbd1fc24d	-0.03900366
116	0xbc2a382d	-0.01038937
117	0xbc811f4f	-0.015762
118	0x3cb3c43c	0.021944158
119	0x3d040d0f	0.032239016
120	0x3cff2832	0.031147096
121	0x3d5aa296	0.05337771
122	0xbd61e656	-0.055151306
123	0xbc420e0c	-0.011844169
124	0xbcde820b	-0.027161619
125	0xbc9bffa7	-0.019042803
126	0x3cf2f030	0.029655546
127	0x3dc48d02	0.095972076
128	0xbd41e7bb	-0.047340136
129	0x3d174dee	0.036939554
130	0x3c6b77b9	0.014371806
131	0xbc5a02aa	-0.013306299
132	0xbd1cbaf1	-0.03826422
133	0xbd047ce7	-0.03234568
134	0xbcb2e7ec	-0.021839105
135	0x3c9ea35a	0.019365001
136	0x3dbeb348	0.09311539
137	0xbcc1205c	-0.023575
138	0x3d865232	0.06558646
139	0xbda00241	-0.0781293
140	0x3dbf46cc	0.09339675
141	0x3cc4d938	0.02402936
142	0x3ca956a2	0.020671193
143	0x3d1f2b61	0.03885973
144	0x3d37fddc	0.044919834
145	0xbd938c50	-0.07204497
146	0xbd2413ab	-0.04005782
147	0x3d925470	0.071450114
148	0x3d20a005	0.039215107
149	0xbd864788	-0.06556612
150	0x3d9bd909	0.076097555
151	0xbcda86ff	-0.0266757
152	0xbc837bdf	-0.016050277
153	0x3d3fab79	0.04679439
154	0x3d9e8ebb	0.077420674
155	0x3d924ffa	0.071441606
156	0x3d8d6207	0.06903463
157	0xbd8661e4	-0.0656164
158	0x3c912021	0.017715516
159	0x3dacb2ee	0.08432566
160	0x3d520524	0.051274434
161	0x3daae514	0.083444744
162	0x3d4d9cb7	0.050198283
163	0x3da85a07	0.08220296
164	0xbc4159ba	-0.011801178
165	0x3d286fbf	0.041122194
166	0x3d983d2e	0.07433544
167	0xbd0eefe8	-0.03489676
168	0xbd53f366	-0.051745795
169	0xbcf8a5d9	-0.03035252
170	0x3c2ce2ea	0.010552147
171	0x3d8271ea	0.06369384
172	0x3b58cbc2	0.0033080433
173	0xbc0a5b41	-0.008444608
174	0xbc9af02e	-0.018913355
175	0x3c22fedf	0.009948461
176	0x3d0701df	0.03296077
177	0xbd6b7b65	-0.057490725
178	0x3c42390c	0.011854421
179	0xbc1cef45	-0.009578531
180	0x3cea7ed5	0.028624931
181	0x3d61545b	0.05501209
182	0xbd994366	-0.07483558
183	0x3d767710	0.06017214
184	0x3ad9f3a0	0.0016628392
185	0x3db4c5cd	0.0882679
186	0x3c7409b7	0.014894894
187	0xbda3cf20	-0.0799849
188	0x3c96627a	0.018357504
189	0x3d7f0ef9	0.06227014
190	0xbd7b85c2	-0.06140686
191	0x3a8fe133	0.0010977149
192	0xbc016a10	-0.007898822
193	0x3d7a5165	0.06111278
194	0x3d9689b4	0.073504835
195	0xbc44ab7e	-0.012003778
196	0xbd4277ec	-0.047477648
197	0xbd3f2c08	-0.04667285
198	0x3d74ed3a	0.05979655
199	0xbd9edb94	-0.07756725
200	0xbd15857c	-0.036504254
201	0x3d096e8f	0.033552703
202	0x3dbb967e	0.091595635
203	0x3d379aeb	0.044825476
204	0xbd1b0306	-0.03784468
205	0xbc0dfaf2	-0.008665787
206	0x3d3c5fd8	0.04598984
207	0xbd7b1823	-0.061302315
208	0x3db8241a	0.08991261
209	0xbce47e71	-0.027892323
210	0xbd892bc6	-0.06697802
211	0xbd9a5187	-0.07535081
212	0x3c3be406	0.011467939
213	0xbd630178	-0.055421323
214	0xbd7d0a95	-0.06177767
215	0xba5f33b0	-0.0008514477
216	0x3d149bd9	0.03628144
217	0xbcdcd296	-0.026955884
218	0xbc6175b8	-0.0137609765
219	0x3da1f43b	0.079079114
220	0xbd7de865	-0.061989207
221	0xbd1ac17d	-0.03778218
222	0x3cec91b8	0.028878078
223	0x3ccce703	0.025012499
224	0x3d3485aa	0.044072784
225	0xbd98189d	-0.074265696
226	0xbd906c9a	-0.07051964
227	0x3cd68948	0.026188508
228	0xbbd98dd9	-0.006639224
229	0x3d9ee4fc	0.07758519
230	0x3c274919	0.010210299
231	0xbc8d0694	-0.01721505
232	0x3db4946b	0.08817371
233	0x3d97be3b	0.074093305
234	0x3c6e0815	0.014528294
235	0xbd48d64d	-0.0490325
236	0xbdb60d98	-0.088893116
237	0xbc481321	-0.012211592
238	0xbc9282b0	-0.017884582
239	0x3d139bb8	0.036037177
240	0x3c991be3	0.018690055
241	0xbcfba2c0	-0.030717254
242	0xbdd55e82	-0.104184166
243	0x3d43b85a	0.047783233
244	0xbdd81ee1	-0.10552765
245	0xbd579c73	-0.052639436
246	0xbd819d80	-0.06328869
247	0x3d90be07	0.07067495
248	0x3ca81b69	0.020520883
249	0xbcf48373	-0.029847836
250	0x3cf8344a	0.03029837
251	0x3c4e12b6	0.012577703
252	0xbc8fab15	-0.017537633
253	0xbd8a55b5	-0.067546286
254	0xbc8bbd11	-0.017057927
255	0xbd82fb59	-0.06395597

lstm.weight_hh_l0 f4 [512, 128]
0	0x3c96b2c2	0.018395785
1	0xbd023a92	-0.03179414
2	0xbcc86b3d	-0.024465198
3	0x3c28f504	0.0103123225
4	0x3d12914e	0.035783105
5	0x3c6412c4	0.01392049
6	0xbd10ad4f	-0.03532153
7	0x3d3bc99a	0.04584656
8	0x3d569ab7	0.05239364
9	0x3d3ba1bc	0.04580854
10	0x3d086df8	0.033308
11	0x3d2952bb	0.041338664
12	0x3d411841	0.04714227
13	0x3d4f190a	0.05056099
14	0xbd78e6b8	-0.060766906
15	0xbd8551d1	-0.06509746
16	0x3cbc9764	0.023021407
17	0x3d826431	0.06366766
18	0xbd16d57f	-0.0368247
19	0x3d7b575d	0.061362613
20	0x3da3843d	0.07984207
21	0x3d222b16	0.03959187
22	0x3ca72f00	0.020408154
23	0xbcc2b5f0	-0.023768395
24	0xbd88dc1a	-0.06682606
25	0x3d393c04	0.04522325
26	0xbd235a64	-0.039881125
27	0xbce5a8c1	-0.02803457
28	0x3dec014e	0.11523686
29	0x3d2e14e8	0.042500407
30	0x3c8a9556	0.016916912
31	0x3d053802	0.032524116
32	0xbcc81ca9	-0.024427729
33	0xbd5e0322	-0.054202206
34	0xbcdd2391	-0.026994498
35	0xbc454087	-0.01203931
36	0x3dc6dfe6	0.09710674
37	0xbda764f6	-0.08173554
38	0x3d79e21b	0.061006647
39	0xbd859489	-0.065224715
40	0xbda1fb18	-0.079092205
41	0x3d124d81	0.035718445
42	0xbbacefcc	-0.0052776095
43	0xbcd57645	-0.026057372
44	0x3db9478c	0.090468496
45	0xbdd6896e	-0.104754314
46	0x3c9cbf8e	0.01913431
47	0xbdd7ebb5	-0.105430044
48	0xbc2115eb	-0.009831886
49	0x3aea911d	0.001789603
50	0xbd2ac97d	-0.04169606
51	0x3d2854bb	0.04109643
52	0x3d5b1f89	0.05349687
53	0x3db1051c	0.08643553
54	0x3c784a13	0.015154379
55	0x3d176b3d	0.036967505
56	0xbd06a7a6	-0.032874726
57	0x3ca40049	0.020019667
58	0x3bc4ce42	0.006006033
59	0xbb96f401	-0.0046067243
60	0x3d848701	0.064710625
61	0xbd43542e	-0.047687702
62	0xbd362e4a	-0.04447774
63	0x3d3fcc1c	0.046825513
64	0x3ab7f3b2	0.0014034419
65	0x3d8c65c3	0.06855347
66	0xbda0c049	-0.078491755
67	0x3d3fc2aa	0.046816505
68	0x3db26c57	0.087120704
69	0x3db52265	0.08844451
70	0xbdd66ba3	-0.10469749
71	0x3da99c79	0.08281798
72	0x3cf5f207	0.030022634
73	0xbd4cb2c7	-0.049975183
74	0xbd373352	-0.044726677
75	0x3cd5abf4	0.02608297
76	0xbb1782e7	-0.0023118795
77	0x3ae6008b	0.0017547769
78	0x3dc45b03	0.095876716
79	0xbda5d2f0	-0.08096874
80	0xbd848ac9	-0.06471784
81	0xbdb48bf8	-0.088157594
82	0xbd13da5b	-0.036096912
83	0xbd40415d	-0.046937335
84	0x3d1019e2	0.035180934
85	0xbb2091b3	-0.0024500906
86	0xbbf06b0c	-0.0073369797
87	0x3d16a2ff	0.03677654
88	0x3ca71411	0.02039531
89	0xbd5f3f30	-0.05450362
90	0xbcc24823	-0.023716038
91	0xbd2625af	-0.04056328
92	0xbd9ecd95	-0.077540554
93	0xbd3ef166	-0.046616934
94	0x3d8a3c51	0.06749786
95	0xbcea0997	-0.028569026
96	0xbd178b25	-0.036997933
97	0xbd848654	-0.064709336
98	0xbd37bc0e	-0.044857077
99	0xbd91993d	-0.07109306
100	0x3d6e1d8a	0.05813364
101	0xbd891e8f	-0.06695282
102	0xbd8ac93e	-0.06776665
103	0xbc190b93	-0.009341138
104	0xbd5d2872	-0.05399365
105	0xbd56d935	-0.05245324
106	0x3cc67597	0.024225993
107	0x3dc7c9ec	0.097553104
108	0x3ce63f7a	0.02810644
109	0x3d8cc7df	0.0687406
110	0xbcac6db2	-0.0210484
111	0xbdbe9710	-0.09306157
112	0x3ccf3093	0.025291717
113	0xbc84b784	-0.016200788
114	0x3d226958	0.039651245
115	0xbdaea207	-0.08526998
116	0xbc9f1cf8	-0.019422993
117	0x3daeae4b	0.085293375
118	0xbaab9710	-0.0013091285
119	0xbd131ab7	-0.03591415
120	0xbceeb005	-0.029136667
121	0xbd846801	-0.0646515
122	0x3b6ab218	0.0035811719
123	0x3da8e795	0.08247296
124	0x3d7563f9	0.059909794
125	0x3cff7a17	0.031186147
126	0x3c160aba	0.009157831
127	0xbcbf4984	-0.023350485
128	0xbd791463	-0.060810458
129	0xbc82c504	-0.015963085
130	0x3d9bee3e	0.076138005
131	0xbd840b99	-0.064475246
132	0x3d092749	0.03348473
133	0xbd7d8145	-0.06189086
134	0xbcc3fcc1	-0.023924233
135	0x3c9f5c55	0.019453207
136	0xbd2be791	-0.041968886
137	0x3d54a060	0.051910758
138	0xbb818ad4	-0.003953317
139	0x397d3f5a	0.0002415156
140	0x3d9c9885	0.07646278
141	0x3dc46741	0.095900066
142	0xbbd9b71c	-0.006644143
143	0xbd3cc840	-0.04608941
144	0x3d235901	0.039879803
145	0x3cbaa903	0.02278567
146	0xbd90154d	-0.07035313
147	0x3da39708	0.07987791
148	0xbd208d1f	-0.039197084
149	0x3bc341aa	0.0059587555
150	0xbca5bbd3	-0.020231163
151	0xbd5d3921	-0.05400956
152	0x3d3ffdb2	0.046872802
153	0x3b4afd0d	0.0030973584
154	0xbd0599ca	-0.032617368
155	0x3cd69505	0.026194105
156	0xbda69fea	-0.0813597
157	0x3d28b8c6	0.04119184
158	0x3d54ee31	0.05198497
159	0xbd4a19e6	-0.049341105
160	0xbdaea01c	-0.08526632
161	0x3d4b0faf	0.049575504
162	0xbd86f759	-0.065901466
163	0x3da3fdc9	0.0800739
164	0x3d8bb944	0.06822446
165	0xbcafcaf9	-0.02145909
166	0x3d753956	0.059869133
167	0x3cc5b67f	0.024134872
168	0xbc912be9	-0.017721133
169	0x3bddf4ae	0.006773553
170	0xbdaeb640	-0.08530855
171	0x3b911e7e	0.004428684
172	0xbc5de3fa	-0.013543123
173	0xbd1c037b	-0.038089257
174	0xbd99efe4	-0.07516459
175	0x3d30a461	0.043125514
176	0x3d23c94a	0.039986886
177	0xbd392998	-0.045205683
178	0x3d120356	0.035647713
179	0x3ca464c3	0.020067578
180	0x3d8381f6	0.064212725
181	0x3d688f3b	0.05677722
182	0x3d0caea2	0.03434623
183	0x3ce8f921	0.028439106
184	0xbd68800e	-0.056762747
185	0x3dac5cc7	0.084161334
186	0xbce90388	-0.028444067
187	0xbd5df5b6	-0.054189406
188	0xbda85c21	-0.08220697
189	0xbd05dc3b	-0.03268073
190	0xbca47d65	-0.020079324
191	0x3d887cb8	0.06664413
192	0x3ce0825e	0.027405914
193	0xbd9ba620	-0.07600045
194	0xbca62ae9	-0.020284133
195	0xbc70ab2c	-0.014689248
196	0xb8e2ea1a	-0.000108201246
197	0x3d82ccb6	0.06386702
198	0xbd9f06dd	-0.07764981
199	0x3d93e28e	0.07220946
200	0xbd89e2e1	-0.06732727
201	0xbc96bf57	-0.018401785
202	0x3c0fe46b	0.008782486
203	0xbce6e8b3	-0.028187132
204	0xbd2fc9e9	-0.042917166
205	0xbd9cc706	-0.07655148
206	0x3daadce6	0.08342914
207	0xbd9c780e	-0.07640086
208	0x3d2f4b59	0.042796466
209	0x3c6b70be	0.014370142
210	0xbcc86291	-0.024461063
211	0x3c0b8f63	0.008518073
212	0xbd811e8f	-0.06304657
213	0x3d966f74	0.07345477
214	0x3d2b1a34	0.041773036
215	0xbd28631c	-0.041110143
216	0xbd89479d	-0.06703112
217	0xbc27a478	-0.0102320835
218	0xbceeb211	-0.029137643
219	0xbc9690ee	-0.018379655
220	0xbdb25c0f	-0.08708965
221	0x3d27a9e3	0.0409335
222	0xbd09c419	-0.03363428
223	0x3d2e2572	0.04251618
224	0xbd112b87	-0.0354419
225	0x3b912328	0.00442924
226	0x3b348905	0.002754749
227	0x3d6ddc0e	0.05807119
228	0xbc99b184	-0.018761404
229	0x3c49b53d	0.012311277
230	0x3bd43b0b	0.006476765
231	0x3b2b9954	0.002618392
232	0xbccb6ff4	-0.024833657
233	0x3d22da2d	0.03975885
234	0xbd1e5f63	-0.038665187
235	0x3ca9a20e	0.020707157
236	0xbd7155ad	-0.058919597
237	0xbce25be8	-0.027631715
238	0xbc2b01b0	-0.010437414
239	0xbd836613	-0.064159535
240	0xbd0130c3	-0.031540643
241	0xbd8449f5	-0.06459419
242	0x3d659c9f	0.05605757
243	0x3d9e8964	0.07741049
244	0xbdab669b	-0.0836918
245	0x3b63ef3c	0.0034780046
246	0x3d1e661a	0.03867159
247	0x3d70f893	0.05883081
248	0x3ca7809b	0.020447066
249	0x3d911ed9	0.07085962
250	0xbcaa435a	-0.020784069
251	0x3cb92625	0.022601197
252	0xbd4591af	-0.048234638
253	0x3c889c7d	0.016676182
254	0x3d9e5710	0.077314496
255	0x3d25fca9	0.04052416

lstm.bias_ih_l0 f4 [512]
0	0xbb08f8cf	-0.0020900255
1	0xbd1daa3c	-0.038492426
2	0x3c69c8d1	0.01426907
3	0x3d8705ce	0.06592904
4	0xbd145497	-0.036213484
5	0x3d2c6d3a	0.042096354
6	0x3db02159	0.086001106
7	0xbd955861	-0.072922476
8	0x3a67cd04	0.00088425004
9	0x3d9bd1af	0.07608353
10	0xbd96d284	-0.073643714
11	0xbcf8a388	-0.030351415
12	0xbd0a3432	-0.033741184
13	0x3cfc9fef	0.030837981
14	0x3daed693	0.085370205
15	0x3d4fa788	0.05069688
16	0xbcf3320a	-0.029686946
17	0xbc204c0d	-0.009783757
18	0x3c0a9e4f	0.008460595
19	0xbd8e59d6	-0.069507286
20	0xbd2045b6	-0.03912898
21	0x3daadf07	0.0834332
22	0xbc91d85f	-0.01780337
23	0xbd7e985a	-0.062157013
24	0xbc0ac6ae	-0.0084702205
25	0x3c3904f4	0.011292685
26	0xbd96f9d5	-0.073718704
27	0x3d0f620d	0.035005618
28	0x3b27712a	0.0025549629
29	0x3d93edc4	0.072230846
30	0x3b20d553	0.0024541214
31	0xbb5ff464	-0.0034172768
32	0xbd0670e8	-0.03282252
33	0xbd817edf	-0.06323027
34	0xbc20fe86	-0.009826308
35	0x3d5e2d41	0.054242376
36	0xbd3f9ed9	-0.04678235
37	0x3d91b00a	0.07113655
38	0xbd11a374	-0.03555627
39	0xbc5b1e7a	-0.013373965
40	0xbdcba66c	-0.09943852
41	0x3da1612c	0.07879862
42	0x3cc44f1c	0.023963504
43	0x3c6cde04	0.0144572295
44	0x3db20384	0.08692077
45	0x3d9b1daa	0.07574017
46	0xbd8df590	-0.06931603
47	0x3dc8558e	0.09781943
48	0xbd4b87a0	-0.04968989
49	0x3d3da149	0.04629639
50	0xb93d12be	-0.00018031427
51	0xbcb2cd04	-0.021826275
52	0x3d0f0992	0.034921236
53	0x3dcec04b	0.10095271
54	0xbd6f9741	-0.058493856
55	0xbb4aeed8	-0.0030965116
56	0x3d31444c	0.043278024
57	0x3c2824a9	0.010262647
58	0x3d93aeda	0.07211085
59	0xbd2098f2	-0.03920836
60	0x3d9e427f	0.07727527
61	0x3aae4135	0.001329458
62	0x3aa38493	0.0012475423
63	0xbc432b81	-0.011912228
64	0x3d102e43	0.03520037
65	0xbc9d26bb	-0.019183507
66	0xbc9974c2	-0.018732432
67	0x3d2dcdf0	0.042432725
68	0x3dac4959	0.084124275
69	0x3d126e0d	0.035749484
70	0x3cffb586	0.031214487
71	0xbcbc821f	-0.023011265
72	0x3cac15d0	0.021006495
73	0x3dd72c4b	0.10506495
74	0xbd746b12	-0.059672423
75	0x3d6bd588	0.057576686
76	0x3c9d492d	0.019199932
77	0xbc3ecd74	-0.0116456635
78	0xbd305d6e	-0.04305785
79	0x3daf8b7b	0.08571526
80	0x3d685299	0.056719396
81	0xbd165bcf	-0.03670865
82	0xbc00ae74	-0.007854093
83	0x3d152ee3	0.036421668
84	0xbda9085f	-0.0825355
85	0xbd13680f	-0.03598791
86	0x3d8cb470	0.06870353
87	0xbc348df1	-0.01102017
88	0xbcf6085c	-0.030033283
89	0xbc2763e2	-0.010216685
90	0x3d6c23b8	0.05765125
91	0x3c9d3600	0.019190788
92	0x3c5bc0b9	0.013412648
93	0x3d8bc5e2	0.068248525
94	0x3b1d04b4	0.0023959102
95	0x3c8a534d	0.016885424
96	0x3d6ad9d7	0.057336655
97	0xbd44e8e6	-0.04807367
98	0xbda66aaa	-0.08125813
99	0xbd5525d6	-0.052038036
100	0xbd974741	-0.073866375
101	0x3daccbd4	0.08437315
102	0xbda07a87	-0.0783587
103	0x3d9705e9	0.07374174
104	0xbd21afb4	-0.039474204
105	0x3ce02cf4	0.027365185
106	0x3d492800	0.049110413
107	0xbce953fb	-0.028482428
108	0x3dd85cc6	0.1056457
109	0xbcfd1545	-0.030893931
110	0x3d767dc1	0.060178522
111	0xbd16e837	-0.03684255
112	0x3da0afc3	0.07846024
113	0xbcae2fd7	-0.021263046
114	0x3de017d6	0.10942046
115	0xbd85ba74	-0.06529704
116	0x3ca0a609	0.019610422
117	0xbcefef2f	-0.029288856
118	0x3bcee568	0.0063139684
119	0xbda0ee16	-0.07857911
120	0x3d79d28a	0.0609918
121	0x3d1a26df	0.037634727
122	0x3da1e877	0.07905667
123	0xbb3dcdc2	-0.0028961753
124	0xbd80189c	-0.06254694
125	0x3d0d9931	0.034569923
126	0x3d8612a3	0.065465234
127	0x3c88138c	0.016610883
128	0x3d039d87	0.03213265
129	0xbd9e5531	-0.07731093
130	0x3d1f98be	0.038964026
131	0x3d61841d	0.055057634
132	0x3db9998f	0.09062492
133	0x3d7477df	0.05968463
134	0x3a9e217d	0.0012064424
135	0xbd7d242f	-0.061802085
136	0x3d9198be	0.071092114
137	0x3ac4f5b2	0.0015026836
138	0x3d104d41	0.035229925
139	0xbd898611	-0.06715024
140	0xbcc96d71	-0.024588319
141	0xbd2cc700	-0.04218197
142	0x3c2cd71e	0.010549335
143	0xbce4d549	-0.027933734
144	0x3d89113c	0.0669274
145	0x3c3c3262	0.011486622
146	0xbbadf78b	-0.0053090504
147	0xbd8126d8	-0.06306237
148	0x3d685ec3	0.056730997
149	0x3dcd937c	0.10037896
150	0x3c6994f3	0.014256704
151	0xbd42c3d9	-0.047550056
152	0xbb7f8824	-0.0038991058
153	0x3d801e0a	0.062557295
154	0x3bdbe320	0.006710425
155	0x3c22bab2	0.009932207
156	0xbd0f5269	-0.0349907
157	0xbcc162fb	-0.023606768
158	0xbcb4858b	-0.022036334
159	0x3d1ead84	0.038739696
160	0xbb395986	-0.002828212
161	0x3d926f4c	0.071501344
162	0xbd45fa15	-0.0483342
163	0x3c34ae86	0.011027938
164	0xbc47f893	-0.012205261
165	0x3d433d70	0.047666013
166	0xbda3a3ef	-0.07990252
167	0xbd2ce48f	-0.042210158
168	0x3caf1688	0.021373048
169	0xbd76f7d9	-0.06029496
170	0x3d84622d	0.06464038
171	0x3cbeea2d	0.023305023
172	0x3ce8a243	0.028397685
173	0x3d8343fc	0.06409451
174	0x3d99e147	0.07513671
175	0x3baa2850	0.005192794
176	0x3d6ba74a	0.057532586
177	0xbd09ee76	-0.03367468
178	0x3d1ab4d1	0.037770096
179	0x3c68d0dc	0.014209952
180	0x3d25938d	0.04042392
181	0x3d1cefc7	0.038314607
182	0x3cc9f6b3	0.024653768
183	0xbd6ad7e8	-0.05733481
184	0xbbdb7649	-0.0066974503
185	0x3d5c9bb8	0.053859442
186	0xbd6a1fff	-0.05715942
187	0xbab86a48	-0.001406976
188	0x3cf17cc8	0.029478446
189	0xbbbcda30	-0.0057633147
190	0x3d35dcc4	0.04439999
191	0x3c200c7f	0.009768604
192	0x3d85b205	0.06528095
193	0x3dba9897	0.091111355
194	0x3dbf9521	0.09354616
195	0x3db8e001	0.090271
196	0x3d7e17d5	0.062034447
197	0x3dd3b2dd	0.1033685
198	0x3d2c5765	0.042075533
199	0x3dbfdde2	0.09368493
200	0x3d593dce	0.053037457
201	0x3dc59efe	0.09649466
202	0x3ca4bb22	0.020108763
203	0x3d9c8c7f	0.07643985
204	0xbdb49f1d	-0.08819411
205	0x3c2cabd6	0.010539016
206	0x3d69ec62	0.057110198
207	0x3dc35a01	0.09538651
208	0x3d27ef4a	0.04099969
209	0x3d2f4070	0.04278606
210	0x3cec7ac4	0.028867133
211	0xbc18e686	-0.009332305
212	0x3c43c4b1	0.01194875
213	0x3dd77696	0.10520665
214	0xbc90dbde	-0.017682966
215	0xbd909a71	-0.07060707
216	0x3cd16059	0.025558637
217	0x3d7df9eb	0.06200592
218	0xbc9a0882	-0.018802885
219	0xbd93269c	-0.071850985
220	0xbd7916ba	-0.06081269
221	0x3db19ce9	0.08672506
222	0x3d8234c1	0.06357718
223	0x3d5cc062	0.053894408
224	0xbd33718d	-0.043809462
225	0xbd967217	-0.0734598
226	0x3d9e6a9e	0.07735179
227	0x3d67f1fd	0.056627262
228	0xbd887beb	-0.066642605
229	0x3d515331	0.051104728
230	0xbc44c9c5	-0.012010996
231	0x3dacf1cb	0.08444556
232	0x3d9dd5c9	0.07706792
233	0x3d5e3d15	0.05425747
234	0xbd12a0db	-0.035797935
235	0xbd381f8d	-0.044951964
236	0x3d8ec10b	0.06970414
237	0x3d8ee3fa	0.06977077
238	0xbbb8ebc0	-0.005643338
239	0xbd739397	-0.059466925
240	0xbd916749	-0.07099778
241	0x3d8e4087	0.06945901
242	0x3daa088d	0.08302412
243	0x3db43a80	0.088002205
244	0xbd2c8f5a	-0.0421289
245	0xbd8a7a1d	-0.067615725
246	0x3ce6e305	0.028184423
247	0x3d1f4ab2	0.038889594
248	0xbda99dcd	-0.08282051
249	0xbd17e372	-0.037082143
250	0xbd030f26	-0.03199687
251	0xbd3c5a30	-0.045984447
252	0x3d7be699	0.061499212
253	0x3c884947	0.016636504
254	0xbb0f1e1e	-0.002183802
255	0x3da38aae	0.079854354

lstm.bias_hh_l0 f4 [512]
0	0xbd3a40e3	-0.045472037
1	0xbcdcf4ee	-0.02697226
2	0xbaa07066	-0.0012240529
3	0x3be84e1b	0.007089389
4	0xbcfcdb97	-0.030866427
5	0x3d9aab53	0.07552209
6	0x3d6b1b9b	0.057399374
7	0xbba32d1b	-0.004979742
8	0xbc92e808	-0.017932907
9	0x3c76a41c	0.015053775
10	0xbd70e628	-0.058813244
11	0x3ce3e134	0.027817346
12	0x3db0d552	0.086344376
13	0x3d1c7558	0.038197845
14	0x3da778ab	0.081773125
15	0x3d857bb4	0.06517735
16	0x3c1de86a	0.009637931
17	0x3ca6442d	0.02029618
18	0x3cc5bc1f	0.024137555
19	0x3cc26884	0.023731478
20	0x3cd228cb	0.025654217
21	0x3db413db	0.0879285
22	0x3d77af5f	0.06046998
23	0xbc63e186	-0.013908749
24	0xbd839bfa	-0.064262345
25	0x3d66bb98	0.056331247
26	0x3dc7100b	0.09719857
27	0xbc8cefde	-0.017204221
28	0xbc4eee33	-0.012630033
29	0xbcbc3f42	-0.022979382
30	0xbd3c4e50	-0.045973122
31	0x3d34ec80	0.044170856
32	0x3d01af2d	0.0316612
33	0x3d28f8ee	0.041253023
34	0x3c9fb1fd	0.019494051
35	0x3dcc91f6	0.09988777
36	0x3d951a08	0.07280356
37	0x3ca22f36	0.019797903
38	0x3d966109	0.07342727
39	0xbccf8602	-0.025332455
40	0x3d804c67	0.062645726
41	0xbc45b22e	-0.012066407
42	0x3c6bdd38	0.014396004
43	0x3d06f80f	0.03295141
44	0x3c03a8ae	0.008035822
45	0x3dd5b27e	0.10434435
46	0xbd60d12e	-0.05488699
47	0xbd578c79	-0.0526242
48	0x3dbbb79f	0.09165882
49	0xbc942306	-0.018083107
50	0x3cacb28e	0.021081235
51	0x3dc154cf	0.09440004
52	0xbc9207a6	-0.017825913
53	0x3dcdbe97	0.10046118
54	0x3cd91550	0.02649942
55	0x3b455628	0.0030111168
56	0x3ab37fba	0.0013694682
57	0xbd1df22e	-0.03856104
58	0x3dcf5102	0.10122873
59	0xbbdb6d27	-0.0066963616
60	0xbc79c18b	-0.015243898
61	0xbd0117cd	-0.03151684
62	0xbd197a92	-0.037470408
63	0x3d944f7c	0.07241723
64	0x3d9c7993	0.07640376
65	0xbd5dda4d	-0.054163266
66	0x3dd4a806	0.103836104
67	0xbd22c4a9	-0.03973833
68	0x3d9ef771	0.077620395
69	0xbc7951da	-0.015217269
70	0x3ccabc67	0.02474804
71	0xbd0147b0	-0.031562507
72	0xbc78922e	-0.015171571
73	0x3d0e96be	0.034811728
74	0x3d3d4f52	0.046218224
75	0xbc93c658	-0.018038914
76	0xbc6a0098	-0.014282368
77	0xbd9400bd	-0.07226703
78	0xbd77ac34	-0.06046696
79	0x3dca2e91	0.09872163
80	0xbc36a590	-0.011147872
81	0x3de004d2	0.109384194
82	0x3d75c04b	0.059997838
83	0x3ca81f9f	0.02052289
84	0xbd77350e	-0.06035333
85	0xbd8ae399	-0.06781692
86	0x3d3ffb78	0.04687068
87	0x3d202a2d	0.039102722
88	0xba2db30b	-0.0006626106
89	0xbb29f27c	-0.0025931885
90	0x3d7cdb58	0.06173262
91	0x3cea0982	0.028568987
92	0x3b3e927c	0.002907901
93	0xbd4890c7	-0.048966195
94	0x3d941026	0.072296426
95	0x3da6445c	0.08118507
96	0x3dbd1419	0.09232349
97	0x3caf57f8	0.021404251
98	0xbd37e6c1	-0.0448978
99	0xbd761b71	-0.060084764
100	0xba623d68	-0.0008630366
101	0x3dbbb558	0.09165448
102	0x3d8b4a60	0.06801295
103	0x3daa4095	0.08313099
104	0x3dc6fff1	0.09716786
105	0xbc5e0b7b	-0.013552542
106	0x3da5ee56	0.081020996
107	0xbc7addb8	-0.015311651
108	0xbd853fb1	-0.06506289
109	0x3b21b841	0.0024676474
110	0xbd342a4b	-0.043985646
111	0x3db12160	0.08648944
112	0xbc4dc879	-0.012560003
113	0xbd2598f0	-0.040429056
114	0x3d827dcc	0.0637165
115	0xbc06cfea	-0.0082282815
116	0x3d043610	0.03227812
117	0xbd001b26	-0.03127589
118	0x3d47d208	0.048784286
119	0xbbcff650	-0.0063465014
120	0xbc81aeaa	-0.015830357
121	0x3c0a7077	0.008449665
122	0xbd98cf2a	-0.074613884
123	0x3d90aa2b	0.07063707
124	0x3d6a304e	0.057174973
125	0xbb8344dd	-0.004006012
126	0x3a381c39	0.00070232485
127	0xbb3ac962	-0.0028501381
128	0x3c5228af	0.012827083
129	0x3d11ef05	0.035628337
130	0x3d8173ac	0.06320891
131	0x3b172a8b	0.002306613
132	0xbcc9ee1a	-0.024649668
133	0x3d778abc	0.06043504
134	0x3bc64c1f	0.006051555
135	0x3d6b7af8	0.05749032
136	0xbd67e1ad	-0.056611706
137	0x3b49c071	0.003078487
138	0x3d4f2269	0.050569925
139	0xbd81701b	-0.063202105
140	0x3c26a2fb	0.0101706935
141	0xbd90e023	-0.07074001
142	0xbda4788f	-0.08030807
143	0xbd0d2612	-0.034460135
144	0x3d83fe40	0.06444979
145	0x3ddafeb6	0.106931135
146	0x3cef6818	0.02922444
147	0xbdaa3bac	-0.08312163
148	0x3ccda6a9	0.025103884
149	0xbd6a1d50	-0.05715686
150	0x3c9ba371	0.018998833
151	0xbd79f10d	-0.0610209
152	0xbd473aa7	-0.04863992
153	0x3c2ce854	0.010553438
154	0xbcafd341	-0.021463038
155	0xbd9b4c78	-0.07582945
156	0xbc9dce17	-0.01926331
157	0xbdbf71cb	-0.09347876
158	0x3d1f028e	0.038820796
159	0xbc5c5bc1	-0.01344961
160	0xbc9464fa	-0.018114556
161	0xbd868e77	-0.06570142
162	0xbdad6468	-0.084664166
163	0xbd5e1a0b	-0.054224055
164	0x3ccc2c56	0.024923485
165	0xbd744add	-0.059641708
166	0x3bc986b4	0.006150091
167	0x3c9c1bb4	0.019056179
168	0x3c6c6275	0.014427771
169	0x3d94565e	0.07243036
170	0x3d5a8288	0.05334714
171	0xbdab20d5	-0.083558716
172	0xbd0510bf	-0.032486673
173	0x3da96d41	0.08272792
174	0xbd67616b	-0.05648939
175	0xbd2725b6	-0.04080745
176	0xbc976dbe	-0.018484946
177	0x3dc8ca44	0.09804204
178	0x3d0d1d16	0.034451567
179	0x3b0f7b00	0.0021893382
180	0x3d0962fb	0.03354166
181	0x3c8cace5	0.017172286
182	0x3cd34d5b	0.025793722
183	0x3d309070	0.043106496
184	0xbd8c5547	-0.06852203
185	0x3dc23d8b	0.09484395
186	0x3ca27ffa	0.019836415
187	0xbd191d99	-0.037381742
188	0x3db19901	0.08671761
189	0x3dbe3701	0.09287835
190	0xbd6f7f0e	-0.05847078
191	0xbd010cbd	-0.03150629
192	0x3d99306f	0.07479941
193	0x3d1353b5	0.0359685
194	0xbd179f6d	-0.037017275
195	0x3da0667d	0.07832048
196	0x3cbd2996	0.023091119
197	0xbbb6c3c8	-0.005577538
198	0x3bd57ea2	0.00651534
199	0x3d75ee60	0.060041785
200	0xbd9bc068	-0.07605058
201	0xbd876f86	-0.06613068
202	0xbd106bab	-0.03525893
203	0xbc87dc7c	-0.016584627
204	0xbca26ac5	-0.019826302
205	0x3cf6390a	0.030056495
206	0xbb7380e5	-0.0037155685
207	0xbd6b085d	-0.057381023
208	0xbc496c33	-0.012293863
209	0xbd3f6ac9	-0.046732698
210	0x3dab772d	0.0837234
211	0xbcd32b38	-0.025777444
212	0xbd645217	-0.05574235
213	0xbd17e60d	-0.037084628
214	0x3d93077e	0.071791634
215	0xbd8fd3b1	-0.07022799
216	0x3d5489ba	0.05188916
217	0x3b787baa	0.0037915506
218	0xbdae18ee	-0.08500849
219	0x3d665c7f	0.056240555
220	0x3d1d48fc	0.03839968
221	0xbd19e494	-0.037571505
222	0xbd85f756	-0.06541316
223	0xbd840e62	-0.06448056
224	0x3da354f7	0.0797519
225	0xbd357afa	-0.044306733
226	0xbd3da71a	-0.04630194
227	0xbd85067e	-0.06495379
228	0x3c34013b	0.0109866215
229	0x3d06c839	0.03290579
230	0x3d2df55d	0.042470325
231	0x3d3bf4a2	0.045887597
232	0x3d39adf7	0.04533192
233	0xbcfc27e7	-0.030780746
234	0x3d9aabf9	0.075523324
235	0xbdb08691	-0.086194165
236	0x3dbd4725	0.09242085
237	0x3dd574ec	0.10422692
238	0xbd8f9a6a	-0.07011874
239	0xbc0188f9	-0.007906192
240	0xbd035b72	-0.03206963
241	0x3d97bd5b	0.074091636
242	0xbd26d40a	-0.04072956
243	0xbd9b039a	-0.07569046
244	0x3d9be9e1	0.07612968
245	0x3dbebd9a	0.093135074
246	0x3d67b08f	0.056564864
247	0x3d7d768f	0.061880644
248	0x3c8af385	0.016961822
249	0xbd4895d7	-0.048971023
250	0x3cda29a3	0.026631182
251	0x3c9a6c87	0.018850578
252	0x3dc91ef0	0.09820354
253	0x3b933600	0.0044925213
254	0xbb6b282e	-0.0035882103
255	0xbce4f257	-0.027947588

fc.weight f4 [2, 128]
0	0x3d9abc75	0.075554766
1	0x3d65be82	0.056089886
2	0x3c8577aa	0.016292412
3	0xbc889be3	-0.016675895
4	0x3c3800c0	0.011230648
5	0x3ce606ec	0.028079472
6	0x3ce8cf9d	0.02841931
7	0x3b978ae3	0.004624711
8	0xbd99b4a4	-0.075051576
9	0x3d1c4d54	0.038159683
10	0xbb9e1b92	-0.004825064
11	0x3d80e20a	0.062931135
12	0x3d6d5892	0.057945795
13	0xbc8282d9	-0.015931534
14	0xbc795711	-0.015218512
15	0x3d8a1f3c	0.06744239
16	0x3c6611a5	0.014042293
17	0x3cc889a8	0.024479702
18	0x3c06207e	0.008186458
19	0x3db03536	0.08603899
20	0x3da96f77	0.08273213
21	0xbdd2f42d	-0.10300479
22	0xbd76cd43	-0.060254347
23	0xbdaa2971	-0.083086856
24	0xbdd9bd1a	-0.106317714
25	0x3da80a6e	0.08205114
26	0x3c939e5e	0.018019851
27	0x3d6d3227	0.057909157
28	0x3d7af221	0.06126607
29	0xbd8e9ca0	-0.069634676
30	0xbd07d2bd	-0.03315996
31	0x3d1e5594	0.038655832
32	0xbdd009af	-0.10158097
33	0xbd98c9f1	-0.07460392
34	0x3d7b3108	0.061326057
35	0x3d1a5c5d	0.03768574
36	0x3d424a25	0.04743399
37	0xbd0d911b	-0.03456221
38	0x3d61bca9	0.05511156
39	0xbc9bddfb	-0.019026747
40	0xbcefa7ff	-0.029254911
41	0x3cc009f5	0.023442248
42	0xbd37ed38	-0.044903964
43	0x3d620f31	0.05519027
44	0x3d96208c	0.073304266
45	0x3da7f14b	0.0820032
46	0xbd866ec4	-0.065640956
47	0x3d965bfb	0.07341763
48	0x3d4fef0a	0.050765075
49	0xbd45aa17	-0.048257913
50	0x3d1959ef	0.037439283
51	0x3d8c899e	0.06862186
52	0x3d4ee948	0.050515443
53	0xbd179006	-0.037002586
54	0xbdaa2f08	-0.08309752
55	0xbd9dbaa5	-0.07701615
56	0xbcf95fec	-0.030441247
57	0x3de4a92d	0.1116508
58	0x3d01dd99	0.031705473
59	0x3ceea91c	0.029133372
60	0xbdb207da	-0.08692904
61	0x3d824eca	0.06362684
62	0xbdc20a65	-0.09474639
63	0xbc5be57f	-0.013421415
64	0x3dadac6f	0.08480155
65	0x3db1fe6c	0.08691105
66	0xbdcc6001	-0.09979249
67	0x3d316099	0.043305013
68	0x3ccd51d4	0.025063433
69	0xbd784169	-0.060609255
70	0x3d480c6f	0.048839983
71	0x3daa40a2	0.08313109
72	0x3d8c31e8	0.06845456
73	0xbd00de0f	-0.03146177
74	0xbdacba01	-0.08433915
75	0xbc98092f	-0.018559067
76	0x3d9cfd83	0.07665541
77	0x3d29c012	0.04144294
78	0x3d650ba6	0.055919312
79	0x3d9669dc	0.0734441
80	0x3d98232d	0.07428584
81	0x3d0ec33e	0.034854166
82	0xbdccf59d	-0.100077845
83	0x3da5e71a	0.0810072
84	0x3c9e4f92	0.019325051
85	0xbdbcc854	-0.09217897
86	0x3be949a6	0.0071193753
87	0xbd9b102a	-0.075714424
88	0xbccc506b	-0.02494069
89	0xbd6b0d1c	-0.05738555
90	0xbd55b1b2	-0.052171417
91	0x3dcf0ed6	0.101102516
92	0xbc9d53ff	-0.019205092
93	0xbca538fc	-0.020168774
94	0x3ce74412	0.0282307
95	0x3d47c39f	0.048770543
96	0x3d38e634	0.045141414
97	0x3daecf63	0.085356496
98	0x3d42ac01	0.047527317
99	0xbda9814e	-0.08276616
100	0x3c894cb6	0.016760211
101	0xbd981707	-0.07426267
102	0x3ce7dd00	0.028303623
103	0x3d1f53fb	0.03889845
104	0x3d062b6b	0.03275625
105	0xbd8e4de4	-0.0694845
106	0xbda2f2e4	-0.07956484
107	0x3d07a668	0.03311768
108	0xbd1995a3	-0.03749622
109	0xbd9d3606	-0.0767632
110	0xbd90f92f	-0.07078778
111	0x3d5eea7b	0.054422837
112	0xbd9e9fb5	-0.077453054
113	0xbd9c9075	-0.076447405
114	0xbd90cafe	-0.07069968
115	0x3dcc536a	0.099768475
116	0xbd38d94c	-0.045129105
117	0xbd9ced39	-0.07662434
118	0x3c1b4a90	0.009478226
119	0xbd8a398c	-0.067492574
120	0x3d903dd2	0.07043041
121	0x3d00ec14	0.03147514
122	0x3dc0b493	0.09409442
123	0xbde74a73	-0.11293497
124	0x3d01a2f7	0.031649556
125	0xbd8be066	-0.0682991
126	0x3d5143db	0.051090103
127	0xb92cd60d	-0.00016482938
128	0xbd0a4ef8	-0.033766717
129	0x3d5c8a39	0.053842757
130	0x3c85eb9f	0.016347704
131	0x3cec93fc	0.028879158
132	0xbd9108d6	-0.070817634
133	0x3d8b6e41	0.06808139
134	0xbd65914c	-0.05604677
135	0x3d8d9780	0.06913662
136	0x3d39e99c	0.045388803
137	0xbd8510f0	-0.06497371
138	0x3d97b347	0.07407241
139	0xbb8834fa	-0.004156706
140	0x3c99f499	0.018793391
141	0xbdb8e3bc	-0.09027812
142	0xbd96fa40	-0.0737195
143	0xbc18e8e3	-0.009332868
144	0xbd599e34	-0.05312939
145	0xbd64e577	-0.055882897
146	0xbd0cf795	-0.0344158
147	0xbd47236a	-0.048617758
148	0xbd119e2c	-0.035551235
149	0x3d43223f	0.04764008
150	0x3db2bb75	0.08727161
151	0x3d4873f8	0.04893872
152	0x3cb09ebd	0.021560067
153	0xbd1c4815	-0.03815468
154	0xbdb38fa3	-0.08767631
155	0xbce9260c	-0.028460525
156	0x3dc347e3	0.09535196
157	0x3c29f33c	0.010372933
158	0x3cb3801d	0.021911675
159	0xbdcfdba4	-0.10149315
160	0x3dac666d	0.08417974
161	0x3d8cf490	0.06882584
162	0xbd5b14fe	-0.053486817
163	0xbc4f47cc	-0.012651395
164	0x3c0c4dc0	0.008563459
165	0xbd3239e0	-0.043512225
166	0x3d2eb7c4	0.04265572
167	0xbd7fdb1d	-0.062464822
168	0xbd82635c	-0.063666075
169	0xbd8344b9	-0.06409592
170	0x3d98bbd2	0.07457699
171	0xbb5fb67b	-0.0034135866
172	0xbb46083b	-0.0030217308
173	0xbb09196f	-0.00209197
174	0xbd9d6368	-0.07684976
175	0xbc929e94	-0.017897882
176	0xbd674718	-0.056464285
177	0x3cacf4f2	0.021112893
178	0xbdb27451	-0.08713592
179	0xbdd9b49e	-0.10630153
180	0xbd9f3f90	-0.077757955
181	0x3dc6c222	0.09704997
182	0x3c7fe507	0.015618569
183	0x3db203bb	0.08692118
184	0xbd8e33ec	-0.06943497
185	0x3d4eac94	0.050457552
186	0xbcffbb98	-0.031217381
187	0xbdc485eb	-0.09595855
188	0x3d8094a4	0.06278351
189	0x3b90716d	0.0044080527
190	0xb9e474fa	-0.00043574703
191	0x3d9d1877	0.07670682
192	0xbd624a52	-0.05524666
193	0xbd37f656	-0.04491266
194	0x3dae15b5	0.08500234
195	0xbd0165db	-0.031591278
196	0x3d8a29c0	0.067462444
197	0x3dd37616	0.103252575
198	0xbcaaaad4	-0.02083341
199	0xbd9a488d	-0.07533369
200	0x3a802ada	0.0009778396
201	0x3d524b3a	0.051341273
202	0x3c6e9870	0.014562711
203	0x3b699add	0.0035645284
204	0x3c062eeb	0.008189897
205	0xbd15b90b	-0.036553424
206	0x3d3d271e	0.046179883
207	0x3cbf104b	0.023323199
208	0xbcb1f7cf	-0.02172461
209	0xbd81f605	-0.063457526
210	0x3d6ccdeb	0.057813566
211	0x3c8fcc23	0.017553395
212	0xbd96ec6c	-0.07369313
213	0x3c38b461	0.011273474
214	0x3d750e6b	0.059828203
215	0x3da7c109	0.081911154
216	0xbd08d65f	-0.033407565
217	0x3d9918f2	0.07475461
218	0xbda98d24	-0.082788736
219	0xbcd1867b	-0.02557682
220	0x3dde2ac0	0.10847998
221	0x3d9b4ade	0.07582639
222	0xbd74cf62	-0.05976809
223	0xbd1c7974	-0.038201764
224	0xbd89e6fc	-0.0673351
225	0x3d1b51c9	0.037919793
226	0xbd963569	-0.07334406
227	0xbc079b48	-0.008276768
228	0x3d559350	0.05214244
229	0x3d91737b	0.07102104
230	0x3d53f55f	0.051747676
231	0xbd13a126	-0.036042355
232	0xbd5142d9	-0.05108914
233	0x3cf35dd9	0.029707836
234	0x3d8d3df8	0.06896585
235	0xbc67fca2	-0.014159353
236	0xbdd83e76	-0.105587885
237	0x3cc369a2	0.02385408
238	0x3caa1c61	0.020765485
239	0xbac0be94	-0.0014705234
240	0x3dc502e4	0.09619692
241	0x3dc10d0c	0.094263166
242	0x3d2f2906	0.042763732
243	0xbdaf6a21	-0.08565164
244	0xbbf2beea	-0.0074080126
245	0xbdbc41c1	-0.09192229
246	0x3d5aa37a	0.05337856
247	0xbb9f978b	-0.0048703603
248	0xbd7729a0	-0.06034243
249	0xbdbe7c92	-0.09301104
250	0x3cb66c18	0.02226834
251	0xbc975d47	-0.018477095
252	0xbde4d348	-0.11173111
253	0xbc8c66fd	-0.017138952
254	0x3c8551f4	0.01627443
255	0x3d8788dc	0.06617901

fc.bias f4 [2]
0	0xbd7c1464	-0.061542884
1	0x3d3805b6	0.04492732
